…
I0419 18:12:48.871034 29296 upgrade_proto.cpp:70] Successfully upgraded file specified using deprecated input fields.
W0419 18:12:48.871040 29296 upgrade_proto.cpp:72] Note that future Caffe releases will only support input layers and not input fields.
I0419 18:12:48.873052 29296 net.cpp:51] Initializing net from parameters: 
name: "ResNet101_BN_SCALE_Merged"
state {
  phase: TEST
  level: 0
}
layer {
  name: "input"
  type: "Input"
  top: "data"
  top: "im_info"
  input_param {
    shape {
      dim: 1
      dim: 3
      dim: 224
      dim: 224
    }
    shape {
      dim: 1
      dim: 3
    }
  }
}
layer {
  name: "conv1_aod"
  type: "Convolution"
  bottom: "data"
  top: "conv1_aod"
  convolution_param {
    num_output: 3
    kernel_size: 1
  }
}
layer {
  name: "relu1_aod"
  type: "ReLU"
  bottom: "conv1_aod"
  top: "conv1_aod"
}
layer {
  name: "conv2_aod"
  type: "Convolution"
  bottom: "conv1_aod"
  top: "conv2_aod"
  convolution_param {
    num_output: 3
    pad: 1
    kernel_size: 3
  }
}
layer {
  name: "relu2_aod"
  type: "ReLU"
  bottom: "conv2_aod"
  top: "conv2_aod"
}
layer {
  name: "Concat1_aod"
  type: "Concat"
  bottom: "conv1_aod"
  bottom: "conv2_aod"
  top: "Concat1_aod"
  concat_param {
    axis: 1
  }
}
layer {
  name: "conv3_aod"
  type: "Convolution"
  bottom: "Concat1_aod"
  top: "conv3_aod"
  convolution_param {
    num_output: 3
    pad: 2
    kernel_size: 5
  }
}
layer {
  name: "relu3_aod"
  type: "ReLU"
  bottom: "conv3_aod"
  top: "conv3_aod"
}
layer {
  name: "Concat2_aod"
  type: "Concat"
  bottom: "conv2_aod"
  bottom: "conv3_aod"
  top: "Concat2_aod"
  concat_param {
    axis: 1
  }
}
layer {
  name: "conv4_aod"
  type: "Convolution"
  bottom: "Concat2_aod"
  top: "conv4_aod"
  convolution_param {
    num_output: 3
    pad: 3
    kernel_size: 7
  }
}
layer {
  name: "relu4_aod"
  type: "ReLU"
  bottom: "conv4_aod"
  top: "conv4_aod"
}
layer {
  name: "Concat3_aod"
  type: "Concat"
  bottom: "conv1_aod"
  bottom: "conv2_aod"
  bottom: "conv3_aod"
  bottom: "conv4_aod"
  top: "Concat3_aod"
  concat_param {
    axis: 1
  }
}
layer {
  name: "conv5_aod"
  type: "Convolution"
  bottom: "Concat3_aod"
  top: "conv5_aod"
  convolution_param {
    num_output: 3
    pad: 1
    kernel_size: 3
  }
}
layer {
  name: "relu5_aod"
  type: "ReLU"
  bottom: "conv5_aod"
  top: "K_aod"
}
layer {
  name: "prod_aod"
  type: "Eltwise"
  bottom: "data"
  bottom: "K_aod"
  top: "prod_aod"
  eltwise_param {
    operation: PROD
  }
}
layer {
  name: "eltwise_layer_aod"
  type: "Eltwise"
  bottom: "prod_aod"
  bottom: "K_aod"
  top: "eltwise_layer_aod"
  eltwise_param {
    operation: SUM
    coeff: 1
    coeff: -1
  }
}
layer {
  name: "sum_aod"
  type: "Power"
  bottom: "eltwise_layer_aod"
  top: "sum_aod"
  power_param {
    power: 1
    scale: 1
    shift: 1
  }
}
layer {
  name: "clip_aod"
  type: "ReLU"
  bottom: "sum_aod"
  top: "sum_aod"
}
layer {
  name: "conv1"
  type: "Convolution"
  bottom: "sum_aod"
  top: "conv1"
  param {
    lr_mult: 0
  }
  convolution_param {
    num_output: 64
    bias_term: false
    pad: 3
    kernel_size: 7
    stride: 2
  }
}
layer {
  name: "scale_conv1"
  type: "Scale"
  bottom: "conv1"
  top: "conv1"
  param {
    lr_mult: 0
    decay_mult: 0
  }
  param {
    lr_mult: 0
    decay_mult: 0
  }
  scale_param {
    bias_term: true
  }
}
layer {
  name: "conv1_relu"
  type: "ReLU"
  bottom: "conv1"
  top: "conv1"
}
layer {
  name: "pool1"
  type: "Pooling"
  bottom: "conv1"
  top: "pool1"
  pooling_param {
    pool: MAX
    kernel_size: 3
    stride: 2
  }
}
layer {
  name: "res2a_branch1"
  type: "Convolution"
  bottom: "pool1"
  top: "res2a_branch1"
  param {
    lr_mult: 0
  }
  convolution_param {
    num_output: 256
    bias_term: false
    pad: 0
    kernel_size: 1
    stride: 1
  }
}
layer {
  name: "scale2a_branch1"
  type: "Scale"
  bottom: "res2a_branch1"
  top: "res2a_branch1"
  param {
    lr_mult: 0
    decay_mult: 0
  }
  param {
    lr_mult: 0
    decay_mult: 0
  }
  scale_param {
    bias_term: true
  }
}
layer {
  name: "res2a_branch2a"
  type: "Convolution"
  bottom: "pool1"
  top: "res2a_branch2a"
  param {
    lr_mult: 0
  }
  convolution_param {
    num_output: 64
    bias_term: false
    pad: 0
    kernel_size: 1
    stride: 1
  }
}
layer {
  name: "scale2a_branch2a"
  type: "Scale"
  bottom: "res2a_branch2a"
  top: "res2a_branch2a"
  param {
    lr_mult: 0
    decay_mult: 0
  }
  param {
    lr_mult: 0
    decay_mult: 0
  }
  scale_param {
    bias_term: true
  }
}
layer {
  name: "res2a_branch2a_relu"
  type: "ReLU"
  bottom: "res2a_branch2a"
  top: "res2a_branch2a"
}
layer {
  name: "res2a_branch2b"
  type: "Convolution"
  bottom: "res2a_branch2a"
  top: "res2a_branch2b"
  param {
    lr_mult: 0
  }
  convolution_param {
    num_output: 64
    bias_term: false
    pad: 1
    kernel_size: 3
    stride: 1
  }
}
layer {
  name: "scale2a_branch2b"
  type: "Scale"
  bottom: "res2a_branch2b"
  top: "res2a_branch2b"
  param {
    lr_mult: 0
    decay_mult: 0
  }
  param {
    lr_mult: 0
    decay_mult: 0
  }
  scale_param {
    bias_term: true
  }
}
layer {
  name: "res2a_branch2b_relu"
  type: "ReLU"
  bottom: "res2a_branch2b"
  top: "res2a_branch2b"
}
layer {
  name: "res2a_branch2c"
  type: "Convolution"
  bottom: "res2a_branch2b"
  top: "res2a_branch2c"
  param {
    lr_mult: 0
  }
  convolution_param {
    num_output: 256
    bias_term: false
    pad: 0
    kernel_size: 1
    stride: 1
  }
}
layer {
  name: "scale2a_branch2c"
  type: "Scale"
  bottom: "res2a_branch2c"
  top: "res2a_branch2c"
  param {
    lr_mult: 0
    decay_mult: 0
  }
  param {
    lr_mult: 0
    decay_mult: 0
  }
  scale_param {
    bias_term: true
  }
}
layer {
  name: "res2a"
  type: "Eltwise"
  bottom: "res2a_branch1"
  bottom: "res2a_branch2c"
  top: "res2a"
}
layer {
  name: "res2a_relu"
  type: "ReLU"
  bottom: "res2a"
  top: "res2a"
}
layer {
  name: "res2b_branch2a"
  type: "Convolution"
  bottom: "res2a"
  top: "res2b_branch2a"
  param {
    lr_mult: 0
  }
  convolution_param {
    num_output: 64
    bias_term: false
    pad: 0
    kernel_size: 1
    stride: 1
  }
}
layer {
  name: "scale2b_branch2a"
  type: "Scale"
  bottom: "res2b_branch2a"
  top: "res2b_branch2a"
  param {
    lr_mult: 0
    decay_mult: 0
  }
  param {
    lr_mult: 0
    decay_mult: 0
  }
  scale_param {
    bias_term: true
  }
}
layer {
  name: "res2b_branch2a_relu"
  type: "ReLU"
  bottom: "res2b_branch2a"
  top: "res2b_branch2a"
}
layer {
  name: "res2b_branch2b"
  type: "Convolution"
  bottom: "res2b_branch2a"
  top: "res2b_branch2b"
  param {
    lr_mult: 0
  }
  convolution_param {
    num_output: 64
    bias_term: false
    pad: 1
    kernel_size: 3
    stride: 1
  }
}
layer {
  name: "scale2b_branch2b"
  type: "Scale"
  bottom: "res2b_branch2b"
  top: "res2b_branch2b"
  param {
    lr_mult: 0
    decay_mult: 0
  }
  param {
    lr_mult: 0
    decay_mult: 0
  }
  scale_param {
    bias_term: true
  }
}
layer {
  name: "res2b_branch2b_relu"
  type: "ReLU"
  bottom: "res2b_branch2b"
  top: "res2b_branch2b"
}
layer {
  name: "res2b_branch2c"
  type: "Convolution"
  bottom: "res2b_branch2b"
  top: "res2b_branch2c"
  param {
    lr_mult: 0
  }
  convolution_param {
    num_output: 256
    bias_term: false
    pad: 0
    kernel_size: 1
    stride: 1
  }
}
layer {
  name: "scale2b_branch2c"
  type: "Scale"
  bottom: "res2b_branch2c"
  top: "res2b_branch2c"
  param {
    lr_mult: 0
    decay_mult: 0
  }
  param {
    lr_mult: 0
    decay_mult: 0
  }
  scale_param {
    bias_term: true
  }
}
layer {
  name: "res2b"
  type: "Eltwise"
  bottom: "res2a"
  bottom: "res2b_branch2c"
  top: "res2b"
}
layer {
  name: "res2b_relu"
  type: "ReLU"
  bottom: "res2b"
  top: "res2b"
}
layer {
  name: "res2c_branch2a"
  type: "Convolution"
  bottom: "res2b"
  top: "res2c_branch2a"
  param {
    lr_mult: 0
  }
  convolution_param {
    num_output: 64
    bias_term: false
    pad: 0
    kernel_size: 1
    stride: 1
  }
}
layer {
  name: "scale2c_branch2a"
  type: "Scale"
  bottom: "res2c_branch2a"
  top: "res2c_branch2a"
  param {
    lr_mult: 0
    decay_mult: 0
  }
  param {
    lr_mult: 0
    decay_mult: 0
  }
  scale_param {
    bias_term: true
  }
}
layer {
  name: "res2c_branch2a_relu"
  type: "ReLU"
  bottom: "res2c_branch2a"
  top: "res2c_branch2a"
}
layer {
  name: "res2c_branch2b"
  type: "Convolution"
  bottom: "res2c_branch2a"
  top: "res2c_branch2b"
  param {
    lr_mult: 0
  }
  convolution_param {
    num_output: 64
    bias_term: false
    pad: 1
    kernel_size: 3
    stride: 1
  }
}
layer {
  name: "scale2c_branch2b"
  type: "Scale"
  bottom: "res2c_branch2b"
  top: "res2c_branch2b"
  param {
    lr_mult: 0
    decay_mult: 0
  }
  param {
    lr_mult: 0
    decay_mult: 0
  }
  scale_param {
    bias_term: true
  }
}
layer {
  name: "res2c_branch2b_relu"
  type: "ReLU"
  bottom: "res2c_branch2b"
  top: "res2c_branch2b"
}
layer {
  name: "res2c_branch2c"
  type: "Convolution"
  bottom: "res2c_branch2b"
  top: "res2c_branch2c"
  param {
    lr_mult: 0
  }
  convolution_param {
    num_output: 256
    bias_term: false
    pad: 0
    kernel_size: 1
    stride: 1
  }
}
layer {
  name: "scale2c_branch2c"
  type: "Scale"
  bottom: "res2c_branch2c"
  top: "res2c_branch2c"
  param {
    lr_mult: 0
    decay_mult: 0
  }
  param {
    lr_mult: 0
    decay_mult: 0
  }
  scale_param {
    bias_term: true
  }
}
layer {
  name: "res2c"
  type: "Eltwise"
  bottom: "res2b"
  bottom: "res2c_branch2c"
  top: "res2c"
}
layer {
  name: "res2c_relu"
  type: "ReLU"
  bottom: "res2c"
  top: "res2c"
}
layer {
  name: "res3a_branch1"
  type: "Convolution"
  bottom: "res2c"
  top: "res3a_branch1"
  param {
    lr_mult: 1
  }
  convolution_param {
    num_output: 512
    bias_term: false
    pad: 0
    kernel_size: 1
    stride: 2
  }
}
layer {
  name: "scale3a_branch1"
  type: "Scale"
  bottom: "res3a_branch1"
  top: "res3a_branch1"
  param {
    lr_mult: 0
    decay_mult: 0
  }
  param {
    lr_mult: 0
    decay_mult: 0
  }
  scale_param {
    bias_term: true
  }
}
layer {
  name: "res3a_branch2a"
  type: "Convolution"
  bottom: "res2c"
  top: "res3a_branch2a"
  param {
    lr_mult: 1
  }
  convolution_param {
    num_output: 128
    bias_term: false
    pad: 0
    kernel_size: 1
    stride: 2
  }
}
layer {
  name: "scale3a_branch2a"
  type: "Scale"
  bottom: "res3a_branch2a"
  top: "res3a_branch2a"
  param {
    lr_mult: 0
    decay_mult: 0
  }
  param {
    lr_mult: 0
    decay_mult: 0
  }
  scale_param {
    bias_term: true
  }
}
layer {
  name: "res3a_branch2a_relu"
  type: "ReLU"
  bottom: "res3a_branch2a"
  top: "res3a_branch2a"
}
layer {
  name: "res3a_branch2b"
  type: "Convolution"
  bottom: "res3a_branch2a"
  top: "res3a_branch2b"
  param {
    lr_mult: 1
  }
  convolution_param {
    num_output: 128
    bias_term: false
    pad: 1
    kernel_size: 3
    stride: 1
  }
}
layer {
  name: "scale3a_branch2b"
  type: "Scale"
  bottom: "res3a_branch2b"
  top: "res3a_branch2b"
  param {
    lr_mult: 0
    decay_mult: 0
  }
  param {
    lr_mult: 0
    decay_mult: 0
  }
  scale_param {
    bias_term: true
  }
}
layer {
  name: "res3a_branch2b_relu"
  type: "ReLU"
  bottom: "res3a_branch2b"
  top: "res3a_branch2b"
}
layer {
  name: "res3a_branch2c"
  type: "Convolution"
  bottom: "res3a_branch2b"
  top: "res3a_branch2c"
  param {
    lr_mult: 1
  }
  convolution_param {
    num_output: 512
    bias_term: false
    pad: 0
    kernel_size: 1
    stride: 1
  }
}
layer {
  name: "scale3a_branch2c"
  type: "Scale"
  bottom: "res3a_branch2c"
  top: "res3a_branch2c"
  param {
    lr_mult: 0
    decay_mult: 0
  }
  param {
    lr_mult: 0
    decay_mult: 0
  }
  scale_param {
    bias_term: true
  }
}
layer {
  name: "res3a"
  type: "Eltwise"
  bottom: "res3a_branch1"
  bottom: "res3a_branch2c"
  top: "res3a"
}
layer {
  name: "res3a_relu"
  type: "ReLU"
  bottom: "res3a"
  top: "res3a"
}
layer {
  name: "res3b1_branch2a"
  type: "Convolution"
  bottom: "res3a"
  top: "res3b1_branch2a"
  param {
    lr_mult: 1
  }
  convolution_param {
    num_output: 128
    bias_term: false
    pad: 0
    kernel_size: 1
    stride: 1
  }
}
layer {
  name: "scale3b1_branch2a"
  type: "Scale"
  bottom: "res3b1_branch2a"
  top: "res3b1_branch2a"
  param {
    lr_mult: 0
    decay_mult: 0
  }
  param {
    lr_mult: 0
    decay_mult: 0
  }
  scale_param {
    bias_term: true
  }
}
layer {
  name: "res3b1_branch2a_relu"
  type: "ReLU"
  bottom: "res3b1_branch2a"
  top: "res3b1_branch2a"
}
layer {
  name: "res3b1_branch2b"
  type: "Convolution"
  bottom: "res3b1_branch2a"
  top: "res3b1_branch2b"
  param {
    lr_mult: 1
  }
  convolution_param {
    num_output: 128
    bias_term: false
    pad: 1
    kernel_size: 3
    stride: 1
  }
}
layer {
  name: "scale3b1_branch2b"
  type: "Scale"
  bottom: "res3b1_branch2b"
  top: "res3b1_branch2b"
  param {
    lr_mult: 0
    decay_mult: 0
  }
  param {
    lr_mult: 0
    decay_mult: 0
  }
  scale_param {
    bias_term: true
  }
}
layer {
  name: "res3b1_branch2b_relu"
  type: "ReLU"
  bottom: "res3b1_branch2b"
  top: "res3b1_branch2b"
}
layer {
  name: "res3b1_branch2c"
  type: "Convolution"
  bottom: "res3b1_branch2b"
  top: "res3b1_branch2c"
  param {
    lr_mult: 1
  }
  convolution_param {
    num_output: 512
    bias_term: false
    pad: 0
    kernel_size: 1
    stride: 1
  }
}
layer {
  name: "scale3b1_branch2c"
  type: "Scale"
  bottom: "res3b1_branch2c"
  top: "res3b1_branch2c"
  param {
    lr_mult: 0
    decay_mult: 0
  }
  param {
    lr_mult: 0
    decay_mult: 0
  }
  scale_param {
    bias_term: true
  }
}
layer {
  name: "res3b1"
  type: "Eltwise"
  bottom: "res3a"
  bottom: "res3b1_branch2c"
  top: "res3b1"
}
layer {
  name: "res3b1_relu"
  type: "ReLU"
  bottom: "res3b1"
  top: "res3b1"
}
layer {
  name: "res3b2_branch2a"
  type: "Convolution"
  bottom: "res3b1"
  top: "res3b2_branch2a"
  param {
    lr_mult: 1
  }
  convolution_param {
    num_output: 128
    bias_term: false
    pad: 0
    kernel_size: 1
    stride: 1
  }
}
layer {
  name: "scale3b2_branch2a"
  type: "Scale"
  bottom: "res3b2_branch2a"
  top: "res3b2_branch2a"
  param {
    lr_mult: 0
    decay_mult: 0
  }
  param {
    lr_mult: 0
    decay_mult: 0
  }
  scale_param {
    bias_term: true
  }
}
layer {
  name: "res3b2_branch2a_relu"
  type: "ReLU"
  bottom: "res3b2_branch2a"
  top: "res3b2_branch2a"
}
layer {
  name: "res3b2_branch2b"
  type: "Convolution"
  bottom: "res3b2_branch2a"
  top: "res3b2_branch2b"
  param {
    lr_mult: 1
  }
  convolution_param {
    num_output: 128
    bias_term: false
    pad: 1
    kernel_size: 3
    stride: 1
  }
}
layer {
  name: "scale3b2_branch2b"
  type: "Scale"
  bottom: "res3b2_branch2b"
  top: "res3b2_branch2b"
  param {
    lr_mult: 0
    decay_mult: 0
  }
  param {
    lr_mult: 0
    decay_mult: 0
  }
  scale_param {
    bias_term: true
  }
}
layer {
  name: "res3b2_branch2b_relu"
  type: "ReLU"
  bottom: "res3b2_branch2b"
  top: "res3b2_branch2b"
}
layer {
  name: "res3b2_branch2c"
  type: "Convolution"
  bottom: "res3b2_branch2b"
  top: "res3b2_branch2c"
  param {
    lr_mult: 1
  }
  convolution_param {
    num_output: 512
    bias_term: false
    pad: 0
    kernel_size: 1
    stride: 1
  }
}
layer {
  name: "scale3b2_branch2c"
  type: "Scale"
  bottom: "res3b2_branch2c"
  top: "res3b2_branch2c"
  param {
    lr_mult: 0
    decay_mult: 0
  }
  param {
    lr_mult: 0
    decay_mult: 0
  }
  scale_param {
    bias_term: true
  }
}
layer {
  name: "res3b2"
  type: "Eltwise"
  bottom: "res3b1"
  bottom: "res3b2_branch2c"
  top: "res3b2"
}
layer {
  name: "res3b2_relu"
  type: "ReLU"
  bottom: "res3b2"
  top: "res3b2"
}
layer {
  name: "res3b3_branch2a"
  type: "Convolution"
  bottom: "res3b2"
  top: "res3b3_branch2a"
  param {
    lr_mult: 1
  }
  convolution_param {
    num_output: 128
    bias_term: false
    pad: 0
    kernel_size: 1
    stride: 1
  }
}
layer {
  name: "scale3b3_branch2a"
  type: "Scale"
  bottom: "res3b3_branch2a"
  top: "res3b3_branch2a"
  param {
    lr_mult: 0
    decay_mult: 0
  }
  param {
    lr_mult: 0
    decay_mult: 0
  }
  scale_param {
    bias_term: true
  }
}
layer {
  name: "res3b3_branch2a_relu"
  type: "ReLU"
  bottom: "res3b3_branch2a"
  top: "res3b3_branch2a"
}
layer {
  name: "res3b3_branch2b"
  type: "Convolution"
  bottom: "res3b3_branch2a"
  top: "res3b3_branch2b"
  param {
    lr_mult: 1
  }
  convolution_param {
    num_output: 128
    bias_term: false
    pad: 1
    kernel_size: 3
    stride: 1
  }
}
layer {
  name: "scale3b3_branch2b"
  type: "Scale"
  bottom: "res3b3_branch2b"
  top: "res3b3_branch2b"
  param {
    lr_mult: 0
    decay_mult: 0
  }
  param {
    lr_mult: 0
    decay_mult: 0
  }
  scale_param {
    bias_term: true
  }
}
layer {
  name: "res3b3_branch2b_relu"
  type: "ReLU"
  bottom: "res3b3_branch2b"
  top: "res3b3_branch2b"
}
layer {
  name: "res3b3_branch2c"
  type: "Convolution"
  bottom: "res3b3_branch2b"
  top: "res3b3_branch2c"
  param {
    lr_mult: 1
  }
  convolution_param {
    num_output: 512
    bias_term: false
    pad: 0
    kernel_size: 1
    stride: 1
  }
}
layer {
  name: "scale3b3_branch2c"
  type: "Scale"
  bottom: "res3b3_branch2c"
  top: "res3b3_branch2c"
  param {
    lr_mult: 0
    decay_mult: 0
  }
  param {
    lr_mult: 0
    decay_mult: 0
  }
  scale_param {
    bias_term: true
  }
}
layer {
  name: "res3b3"
  type: "Eltwise"
  bottom: "res3b2"
  bottom: "res3b3_branch2c"
  top: "res3b3"
}
layer {
  name: "res3b3_relu"
  type: "ReLU"
  bottom: "res3b3"
  top: "res3b3"
}
layer {
  name: "res4a_branch1"
  type: "Convolution"
  bottom: "res3b3"
  top: "res4a_branch1"
  param {
    lr_mult: 1
  }
  convolution_param {
    num_output: 1024
    bias_term: false
    pad: 0
    kernel_size: 1
    stride: 2
  }
}
layer {
  name: "scale4a_branch1"
  type: "Scale"
  bottom: "res4a_branch1"
  top: "res4a_branch1"
  param {
    lr_mult: 0
    decay_mult: 0
  }
  param {
    lr_mult: 0
    decay_mult: 0
  }
  scale_param {
    bias_term: true
  }
}
layer {
  name: "res4a_branch2a"
  type: "Convolution"
  bottom: "res3b3"
  top: "res4a_branch2a"
  param {
    lr_mult: 1
  }
  convolution_param {
    num_output: 256
    bias_term: false
    pad: 0
    kernel_size: 1
    stride: 2
  }
}
layer {
  name: "scale4a_branch2a"
  type: "Scale"
  bottom: "res4a_branch2a"
  top: "res4a_branch2a"
  param {
    lr_mult: 0
    decay_mult: 0
  }
  param {
    lr_mult: 0
    decay_mult: 0
  }
  scale_param {
    bias_term: true
  }
}
layer {
  name: "res4a_branch2a_relu"
  type: "ReLU"
  bottom: "res4a_branch2a"
  top: "res4a_branch2a"
}
layer {
  name: "res4a_branch2b"
  type: "Convolution"
  bottom: "res4a_branch2a"
  top: "res4a_branch2b"
  param {
    lr_mult: 1
  }
  convolution_param {
    num_output: 256
    bias_term: false
    pad: 1
    kernel_size: 3
    stride: 1
  }
}
layer {
  name: "scale4a_branch2b"
  type: "Scale"
  bottom: "res4a_branch2b"
  top: "res4a_branch2b"
  param {
    lr_mult: 0
    decay_mult: 0
  }
  param {
    lr_mult: 0
    decay_mult: 0
  }
  scale_param {
    bias_term: true
  }
}
layer {
  name: "res4a_branch2b_relu"
  type: "ReLU"
  bottom: "res4a_branch2b"
  top: "res4a_branch2b"
}
layer {
  name: "res4a_branch2c"
  type: "Convolution"
  bottom: "res4a_branch2b"
  top: "res4a_branch2c"
  param {
    lr_mult: 1
  }
  convolution_param {
    num_output: 1024
    bias_term: false
    pad: 0
    kernel_size: 1
    stride: 1
  }
}
layer {
  name: "scale4a_branch2c"
  type: "Scale"
  bottom: "res4a_branch2c"
  top: "res4a_branch2c"
  param {
    lr_mult: 0
    decay_mult: 0
  }
  param {
    lr_mult: 0
    decay_mult: 0
  }
  scale_param {
    bias_term: true
  }
}
layer {
  name: "res4a"
  type: "Eltwise"
  bottom: "res4a_branch1"
  bottom: "res4a_branch2c"
  top: "res4a"
}
layer {
  name: "res4a_relu"
  type: "ReLU"
  bottom: "res4a"
  top: "res4a"
}
layer {
  name: "res4b1_branch2a"
  type: "Convolution"
  bottom: "res4a"
  top: "res4b1_branch2a"
  param {
    lr_mult: 1
  }
  convolution_param {
    num_output: 256
    bias_term: false
    pad: 0
    kernel_size: 1
    stride: 1
  }
}
layer {
  name: "scale4b1_branch2a"
  type: "Scale"
  bottom: "res4b1_branch2a"
  top: "res4b1_branch2a"
  param {
    lr_mult: 0
    decay_mult: 0
  }
  param {
    lr_mult: 0
    decay_mult: 0
  }
  scale_param {
    bias_term: true
  }
}
layer {
  name: "res4b1_branch2a_relu"
  type: "ReLU"
  bottom: "res4b1_branch2a"
  top: "res4b1_branch2a"
}
layer {
  name: "res4b1_branch2b"
  type: "Convolution"
  bottom: "res4b1_branch2a"
  top: "res4b1_branch2b"
  param {
    lr_mult: 1
  }
  convolution_param {
    num_output: 256
    bias_term: false
    pad: 1
    kernel_size: 3
    stride: 1
  }
}
layer {
  name: "scale4b1_branch2b"
  type: "Scale"
  bottom: "res4b1_branch2b"
  top: "res4b1_branch2b"
  param {
    lr_mult: 0
    decay_mult: 0
  }
  param {
    lr_mult: 0
    decay_mult: 0
  }
  scale_param {
    bias_term: true
  }
}
layer {
  name: "res4b1_branch2b_relu"
  type: "ReLU"
  bottom: "res4b1_branch2b"
  top: "res4b1_branch2b"
}
layer {
  name: "res4b1_branch2c"
  type: "Convolution"
  bottom: "res4b1_branch2b"
  top: "res4b1_branch2c"
  param {
    lr_mult: 1
  }
  convolution_param {
    num_output: 1024
    bias_term: false
    pad: 0
    kernel_size: 1
    stride: 1
  }
}
layer {
  name: "scale4b1_branch2c"
  type: "Scale"
  bottom: "res4b1_branch2c"
  top: "res4b1_branch2c"
  param {
    lr_mult: 0
    decay_mult: 0
  }
  param {
    lr_mult: 0
    decay_mult: 0
  }
  scale_param {
    bias_term: true
  }
}
layer {
  name: "res4b1"
  type: "Eltwise"
  bottom: "res4a"
  bottom: "res4b1_branch2c"
  top: "res4b1"
}
layer {
  name: "res4b1_relu"
  type: "ReLU"
  bottom: "res4b1"
  top: "res4b1"
}
layer {
  name: "res4b2_branch2a"
  type: "Convolution"
  bottom: "res4b1"
  top: "res4b2_branch2a"
  param {
    lr_mult: 1
  }
  convolution_param {
    num_output: 256
    bias_term: false
    pad: 0
    kernel_size: 1
    stride: 1
  }
}
layer {
  name: "scale4b2_branch2a"
  type: "Scale"
  bottom: "res4b2_branch2a"
  top: "res4b2_branch2a"
  param {
    lr_mult: 0
    decay_mult: 0
  }
  param {
    lr_mult: 0
    decay_mult: 0
  }
  scale_param {
    bias_term: true
  }
}
layer {
  name: "res4b2_branch2a_relu"
  type: "ReLU"
  bottom: "res4b2_branch2a"
  top: "res4b2_branch2a"
}
layer {
  name: "res4b2_branch2b"
  type: "Convolution"
  bottom: "res4b2_branch2a"
  top: "res4b2_branch2b"
  param {
    lr_mult: 1
  }
  convolution_param {
    num_output: 256
    bias_term: false
    pad: 1
    kernel_size: 3
    stride: 1
  }
}
layer {
  name: "scale4b2_branch2b"
  type: "Scale"
  bottom: "res4b2_branch2b"
  top: "res4b2_branch2b"
  param {
    lr_mult: 0
    decay_mult: 0
  }
  param {
    lr_mult: 0
    decay_mult: 0
  }
  scale_param {
    bias_term: true
  }
}
layer {
  name: "res4b2_branch2b_relu"
  type: "ReLU"
  bottom: "res4b2_branch2b"
  top: "res4b2_branch2b"
}
layer {
  name: "res4b2_branch2c"
  type: "Convolution"
  bottom: "res4b2_branch2b"
  top: "res4b2_branch2c"
  param {
    lr_mult: 1
  }
  convolution_param {
    num_output: 1024
    bias_term: false
    pad: 0
    kernel_size: 1
    stride: 1
  }
}
layer {
  name: "scale4b2_branch2c"
  type: "Scale"
  bottom: "res4b2_branch2c"
  top: "res4b2_branch2c"
  param {
    lr_mult: 0
    decay_mult: 0
  }
  param {
    lr_mult: 0
    decay_mult: 0
  }
  scale_param {
    bias_term: true
  }
}
layer {
  name: "res4b2"
  type: "Eltwise"
  bottom: "res4b1"
  bottom: "res4b2_branch2c"
  top: "res4b2"
}
layer {
  name: "res4b2_relu"
  type: "ReLU"
  bottom: "res4b2"
  top: "res4b2"
}
layer {
  name: "res4b3_branch2a"
  type: "Convolution"
  bottom: "res4b2"
  top: "res4b3_branch2a"
  param {
    lr_mult: 1
  }
  convolution_param {
    num_output: 256
    bias_term: false
    pad: 0
    kernel_size: 1
    stride: 1
  }
}
layer {
  name: "scale4b3_branch2a"
  type: "Scale"
  bottom: "res4b3_branch2a"
  top: "res4b3_branch2a"
  param {
    lr_mult: 0
    decay_mult: 0
  }
  param {
    lr_mult: 0
    decay_mult: 0
  }
  scale_param {
    bias_term: true
  }
}
layer {
  name: "res4b3_branch2a_relu"
  type: "ReLU"
  bottom: "res4b3_branch2a"
  top: "res4b3_branch2a"
}
layer {
  name: "res4b3_branch2b"
  type: "Convolution"
  bottom: "res4b3_branch2a"
  top: "res4b3_branch2b"
  param {
    lr_mult: 1
  }
  convolution_param {
    num_output: 256
    bias_term: false
    pad: 1
    kernel_size: 3
    stride: 1
  }
}
layer {
  name: "scale4b3_branch2b"
  type: "Scale"
  bottom: "res4b3_branch2b"
  top: "res4b3_branch2b"
  param {
    lr_mult: 0
    decay_mult: 0
  }
  param {
    lr_mult: 0
    decay_mult: 0
  }
  scale_param {
    bias_term: true
  }
}
layer {
  name: "res4b3_branch2b_relu"
  type: "ReLU"
  bottom: "res4b3_branch2b"
  top: "res4b3_branch2b"
}
layer {
  name: "res4b3_branch2c"
  type: "Convolution"
  bottom: "res4b3_branch2b"
  top: "res4b3_branch2c"
  param {
    lr_mult: 1
  }
  convolution_param {
    num_output: 1024
    bias_term: false
    pad: 0
    kernel_size: 1
    stride: 1
  }
}
layer {
  name: "scale4b3_branch2c"
  type: "Scale"
  bottom: "res4b3_branch2c"
  top: "res4b3_branch2c"
  param {
    lr_mult: 0
    decay_mult: 0
  }
  param {
    lr_mult: 0
    decay_mult: 0
  }
  scale_param {
    bias_term: true
  }
}
layer {
  name: "res4b3"
  type: "Eltwise"
  bottom: "res4b2"
  bottom: "res4b3_branch2c"
  top: "res4b3"
}
layer {
  name: "res4b3_relu"
  type: "ReLU"
  bottom: "res4b3"
  top: "res4b3"
}
layer {
  name: "res4b4_branch2a"
  type: "Convolution"
  bottom: "res4b3"
  top: "res4b4_branch2a"
  param {
    lr_mult: 1
  }
  convolution_param {
    num_output: 256
    bias_term: false
    pad: 0
    kernel_size: 1
    stride: 1
  }
}
layer {
  name: "scale4b4_branch2a"
  type: "Scale"
  bottom: "res4b4_branch2a"
  top: "res4b4_branch2a"
  param {
    lr_mult: 0
    decay_mult: 0
  }
  param {
    lr_mult: 0
    decay_mult: 0
  }
  scale_param {
    bias_term: true
  }
}
layer {
  name: "res4b4_branch2a_relu"
  type: "ReLU"
  bottom: "res4b4_branch2a"
  top: "res4b4_branch2a"
}
layer {
  name: "res4b4_branch2b"
  type: "Convolution"
  bottom: "res4b4_branch2a"
  top: "res4b4_branch2b"
  param {
    lr_mult: 1
  }
  convolution_param {
    num_output: 256
    bias_term: false
    pad: 1
    kernel_size: 3
    stride: 1
  }
}
layer {
  name: "scale4b4_branch2b"
  type: "Scale"
  bottom: "res4b4_branch2b"
  top: "res4b4_branch2b"
  param {
    lr_mult: 0
    decay_mult: 0
  }
  param {
    lr_mult: 0
    decay_mult: 0
  }
  scale_param {
    bias_term: true
  }
}
layer {
  name: "res4b4_branch2b_relu"
  type: "ReLU"
  bottom: "res4b4_branch2b"
  top: "res4b4_branch2b"
}
layer {
  name: "res4b4_branch2c"
  type: "Convolution"
  bottom: "res4b4_branch2b"
  top: "res4b4_branch2c"
  param {
    lr_mult: 1
  }
  convolution_param {
    num_output: 1024
    bias_term: false
    pad: 0
    kernel_size: 1
    stride: 1
  }
}
layer {
  name: "scale4b4_branch2c"
  type: "Scale"
  bottom: "res4b4_branch2c"
  top: "res4b4_branch2c"
  param {
    lr_mult: 0
    decay_mult: 0
  }
  param {
    lr_mult: 0
    decay_mult: 0
  }
  scale_param {
    bias_term: true
  }
}
layer {
  name: "res4b4"
  type: "Eltwise"
  bottom: "res4b3"
  bottom: "res4b4_branch2c"
  top: "res4b4"
}
layer {
  name: "res4b4_relu"
  type: "ReLU"
  bottom: "res4b4"
  top: "res4b4"
}
layer {
  name: "res4b5_branch2a"
  type: "Convolution"
  bottom: "res4b4"
  top: "res4b5_branch2a"
  param {
    lr_mult: 1
  }
  convolution_param {
    num_output: 256
    bias_term: false
    pad: 0
    kernel_size: 1
    stride: 1
  }
}
layer {
  name: "scale4b5_branch2a"
  type: "Scale"
  bottom: "res4b5_branch2a"
  top: "res4b5_branch2a"
  param {
    lr_mult: 0
    decay_mult: 0
  }
  param {
    lr_mult: 0
    decay_mult: 0
  }
  scale_param {
    bias_term: true
  }
}
layer {
  name: "res4b5_branch2a_relu"
  type: "ReLU"
  bottom: "res4b5_branch2a"
  top: "res4b5_branch2a"
}
layer {
  name: "res4b5_branch2b"
  type: "Convolution"
  bottom: "res4b5_branch2a"
  top: "res4b5_branch2b"
  param {
    lr_mult: 1
  }
  convolution_param {
    num_output: 256
    bias_term: false
    pad: 1
    kernel_size: 3
    stride: 1
  }
}
layer {
  name: "scale4b5_branch2b"
  type: "Scale"
  bottom: "res4b5_branch2b"
  top: "res4b5_branch2b"
  param {
    lr_mult: 0
    decay_mult: 0
  }
  param {
    lr_mult: 0
    decay_mult: 0
  }
  scale_param {
    bias_term: true
  }
}
layer {
  name: "res4b5_branch2b_relu"
  type: "ReLU"
  bottom: "res4b5_branch2b"
  top: "res4b5_branch2b"
}
layer {
  name: "res4b5_branch2c"
  type: "Convolution"
  bottom: "res4b5_branch2b"
  top: "res4b5_branch2c"
  param {
    lr_mult: 1
  }
  convolution_param {
    num_output: 1024
    bias_term: false
    pad: 0
    kernel_size: 1
    stride: 1
  }
}
layer {
  name: "scale4b5_branch2c"
  type: "Scale"
  bottom: "res4b5_branch2c"
  top: "res4b5_branch2c"
  param {
    lr_mult: 0
    decay_mult: 0
  }
  param {
    lr_mult: 0
    decay_mult: 0
  }
  scale_param {
    bias_term: true
  }
}
layer {
  name: "res4b5"
  type: "Eltwise"
  bottom: "res4b4"
  bottom: "res4b5_branch2c"
  top: "res4b5"
}
layer {
  name: "res4b5_relu"
  type: "ReLU"
  bottom: "res4b5"
  top: "res4b5"
}
layer {
  name: "res4b6_branch2a"
  type: "Convolution"
  bottom: "res4b5"
  top: "res4b6_branch2a"
  param {
    lr_mult: 1
  }
  convolution_param {
    num_output: 256
    bias_term: false
    pad: 0
    kernel_size: 1
    stride: 1
  }
}
layer {
  name: "scale4b6_branch2a"
  type: "Scale"
  bottom: "res4b6_branch2a"
  top: "res4b6_branch2a"
  param {
    lr_mult: 0
    decay_mult: 0
  }
  param {
    lr_mult: 0
    decay_mult: 0
  }
  scale_param {
    bias_term: true
  }
}
layer {
  name: "res4b6_branch2a_relu"
  type: "ReLU"
  bottom: "res4b6_branch2a"
  top: "res4b6_branch2a"
}
layer {
  name: "res4b6_branch2b"
  type: "Convolution"
  bottom: "res4b6_branch2a"
  top: "res4b6_branch2b"
  param {
    lr_mult: 1
  }
  convolution_param {
    num_output: 256
    bias_term: false
    pad: 1
    kernel_size: 3
    stride: 1
  }
}
layer {
  name: "scale4b6_branch2b"
  type: "Scale"
  bottom: "res4b6_branch2b"
  top: "res4b6_branch2b"
  param {
    lr_mult: 0
    decay_mult: 0
  }
  param {
    lr_mult: 0
   
I0419 18:12:48.874521 29296 layer_factory.hpp:77] Creating layer input
I0419 18:12:48.874619 29296 net.cpp:84] Creating Layer input
I0419 18:12:48.874634 29296 net.cpp:380] input -> data
I0419 18:12:48.874668 29296 net.cpp:380] input -> im_info
I0419 18:12:48.885386 29296 net.cpp:122] Setting up input
I0419 18:12:48.885418 29296 net.cpp:129] Top shape: 1 3 224 224 (150528)
I0419 18:12:48.885424 29296 net.cpp:129] Top shape: 1 3 (3)
I0419 18:12:48.885427 29296 net.cpp:137] Memory required for data: 602124
I0419 18:12:48.885432 29296 layer_factory.hpp:77] Creating layer data_input_0_split
I0419 18:12:48.885439 29296 net.cpp:84] Creating Layer data_input_0_split
I0419 18:12:48.885452 29296 net.cpp:406] data_input_0_split <- data
I0419 18:12:48.885462 29296 net.cpp:380] data_input_0_split -> data_input_0_split_0
I0419 18:12:48.885468 29296 net.cpp:380] data_input_0_split -> data_input_0_split_1
I0419 18:12:48.885512 29296 net.cpp:122] Setting up data_input_0_split
I0419 18:12:48.885524 29296 net.cpp:129] Top shape: 1 3 224 224 (150528)
I0419 18:12:48.885529 29296 net.cpp:129] Top shape: 1 3 224 224 (150528)
I0419 18:12:48.885531 29296 net.cpp:137] Memory required for data: 1806348
I0419 18:12:48.885535 29296 layer_factory.hpp:77] Creating layer conv1_aod
I0419 18:12:48.885560 29296 net.cpp:84] Creating Layer conv1_aod
I0419 18:12:48.885566 29296 net.cpp:406] conv1_aod <- data_input_0_split_0
I0419 18:12:48.885571 29296 net.cpp:380] conv1_aod -> conv1_aod
I0419 18:12:49.542649 29296 net.cpp:122] Setting up conv1_aod
I0419 18:12:49.542706 29296 net.cpp:129] Top shape: 1 3 224 224 (150528)
I0419 18:12:49.542711 29296 net.cpp:137] Memory required for data: 2408460
I0419 18:12:49.542743 29296 layer_factory.hpp:77] Creating layer relu1_aod
I0419 18:12:49.542765 29296 net.cpp:84] Creating Layer relu1_aod
I0419 18:12:49.542770 29296 net.cpp:406] relu1_aod <- conv1_aod
I0419 18:12:49.542776 29296 net.cpp:367] relu1_aod -> conv1_aod (in-place)
I0419 18:12:49.543191 29296 net.cpp:122] Setting up relu1_aod
I0419 18:12:49.543205 29296 net.cpp:129] Top shape: 1 3 224 224 (150528)
I0419 18:12:49.543207 29296 net.cpp:137] Memory required for data: 3010572
I0419 18:12:49.543211 29296 layer_factory.hpp:77] Creating layer conv1_aod_relu1_aod_0_split
I0419 18:12:49.543221 29296 net.cpp:84] Creating Layer conv1_aod_relu1_aod_0_split
I0419 18:12:49.543225 29296 net.cpp:406] conv1_aod_relu1_aod_0_split <- conv1_aod
I0419 18:12:49.543231 29296 net.cpp:380] conv1_aod_relu1_aod_0_split -> conv1_aod_relu1_aod_0_split_0
I0419 18:12:49.543239 29296 net.cpp:380] conv1_aod_relu1_aod_0_split -> conv1_aod_relu1_aod_0_split_1
I0419 18:12:49.543244 29296 net.cpp:380] conv1_aod_relu1_aod_0_split -> conv1_aod_relu1_aod_0_split_2
I0419 18:12:49.543285 29296 net.cpp:122] Setting up conv1_aod_relu1_aod_0_split
I0419 18:12:49.543292 29296 net.cpp:129] Top shape: 1 3 224 224 (150528)
I0419 18:12:49.543295 29296 net.cpp:129] Top shape: 1 3 224 224 (150528)
I0419 18:12:49.543299 29296 net.cpp:129] Top shape: 1 3 224 224 (150528)
I0419 18:12:49.543303 29296 net.cpp:137] Memory required for data: 4816908
I0419 18:12:49.543305 29296 layer_factory.hpp:77] Creating layer conv2_aod
I0419 18:12:49.543316 29296 net.cpp:84] Creating Layer conv2_aod
I0419 18:12:49.543319 29296 net.cpp:406] conv2_aod <- conv1_aod_relu1_aod_0_split_0
I0419 18:12:49.543323 29296 net.cpp:380] conv2_aod -> conv2_aod
I0419 18:12:49.544558 29296 net.cpp:122] Setting up conv2_aod
I0419 18:12:49.544571 29296 net.cpp:129] Top shape: 1 3 224 224 (150528)
I0419 18:12:49.544574 29296 net.cpp:137] Memory required for data: 5419020
I0419 18:12:49.544587 29296 layer_factory.hpp:77] Creating layer relu2_aod
I0419 18:12:49.544595 29296 net.cpp:84] Creating Layer relu2_aod
I0419 18:12:49.544598 29296 net.cpp:406] relu2_aod <- conv2_aod
I0419 18:12:49.544605 29296 net.cpp:367] relu2_aod -> conv2_aod (in-place)
I0419 18:12:49.544795 29296 net.cpp:122] Setting up relu2_aod
I0419 18:12:49.544806 29296 net.cpp:129] Top shape: 1 3 224 224 (150528)
I0419 18:12:49.544808 29296 net.cpp:137] Memory required for data: 6021132
I0419 18:12:49.544812 29296 layer_factory.hpp:77] Creating layer conv2_aod_relu2_aod_0_split
I0419 18:12:49.544818 29296 net.cpp:84] Creating Layer conv2_aod_relu2_aod_0_split
I0419 18:12:49.544821 29296 net.cpp:406] conv2_aod_relu2_aod_0_split <- conv2_aod
I0419 18:12:49.544826 29296 net.cpp:380] conv2_aod_relu2_aod_0_split -> conv2_aod_relu2_aod_0_split_0
I0419 18:12:49.544832 29296 net.cpp:380] conv2_aod_relu2_aod_0_split -> conv2_aod_relu2_aod_0_split_1
I0419 18:12:49.544836 29296 net.cpp:380] conv2_aod_relu2_aod_0_split -> conv2_aod_relu2_aod_0_split_2
I0419 18:12:49.544878 29296 net.cpp:122] Setting up conv2_aod_relu2_aod_0_split
I0419 18:12:49.544883 29296 net.cpp:129] Top shape: 1 3 224 224 (150528)
I0419 18:12:49.544888 29296 net.cpp:129] Top shape: 1 3 224 224 (150528)
I0419 18:12:49.544891 29296 net.cpp:129] Top shape: 1 3 224 224 (150528)
I0419 18:12:49.544894 29296 net.cpp:137] Memory required for data: 7827468
I0419 18:12:49.544898 29296 layer_factory.hpp:77] Creating layer Concat1_aod
I0419 18:12:49.544924 29296 net.cpp:84] Creating Layer Concat1_aod
I0419 18:12:49.544930 29296 net.cpp:406] Concat1_aod <- conv1_aod_relu1_aod_0_split_1
I0419 18:12:49.544935 29296 net.cpp:406] Concat1_aod <- conv2_aod_relu2_aod_0_split_0
I0419 18:12:49.544939 29296 net.cpp:380] Concat1_aod -> Concat1_aod
I0419 18:12:49.544967 29296 net.cpp:122] Setting up Concat1_aod
I0419 18:12:49.544975 29296 net.cpp:129] Top shape: 1 6 224 224 (301056)
I0419 18:12:49.544978 29296 net.cpp:137] Memory required for data: 9031692
I0419 18:12:49.544981 29296 layer_factory.hpp:77] Creating layer conv3_aod
I0419 18:12:49.544988 29296 net.cpp:84] Creating Layer conv3_aod
I0419 18:12:49.544992 29296 net.cpp:406] conv3_aod <- Concat1_aod
I0419 18:12:49.544996 29296 net.cpp:380] conv3_aod -> conv3_aod
I0419 18:12:49.546872 29296 net.cpp:122] Setting up conv3_aod
I0419 18:12:49.546886 29296 net.cpp:129] Top shape: 1 3 224 224 (150528)
I0419 18:12:49.546890 29296 net.cpp:137] Memory required for data: 9633804
I0419 18:12:49.546898 29296 layer_factory.hpp:77] Creating layer relu3_aod
I0419 18:12:49.546905 29296 net.cpp:84] Creating Layer relu3_aod
I0419 18:12:49.546908 29296 net.cpp:406] relu3_aod <- conv3_aod
I0419 18:12:49.546913 29296 net.cpp:367] relu3_aod -> conv3_aod (in-place)
I0419 18:12:49.547297 29296 net.cpp:122] Setting up relu3_aod
I0419 18:12:49.547308 29296 net.cpp:129] Top shape: 1 3 224 224 (150528)
I0419 18:12:49.547312 29296 net.cpp:137] Memory required for data: 10235916
I0419 18:12:49.547315 29296 layer_factory.hpp:77] Creating layer conv3_aod_relu3_aod_0_split
I0419 18:12:49.547322 29296 net.cpp:84] Creating Layer conv3_aod_relu3_aod_0_split
I0419 18:12:49.547325 29296 net.cpp:406] conv3_aod_relu3_aod_0_split <- conv3_aod
I0419 18:12:49.547330 29296 net.cpp:380] conv3_aod_relu3_aod_0_split -> conv3_aod_relu3_aod_0_split_0
I0419 18:12:49.547336 29296 net.cpp:380] conv3_aod_relu3_aod_0_split -> conv3_aod_relu3_aod_0_split_1
I0419 18:12:49.547369 29296 net.cpp:122] Setting up conv3_aod_relu3_aod_0_split
I0419 18:12:49.547375 29296 net.cpp:129] Top shape: 1 3 224 224 (150528)
I0419 18:12:49.547379 29296 net.cpp:129] Top shape: 1 3 224 224 (150528)
I0419 18:12:49.547382 29296 net.cpp:137] Memory required for data: 11440140
I0419 18:12:49.547385 29296 layer_factory.hpp:77] Creating layer Concat2_aod
I0419 18:12:49.547391 29296 net.cpp:84] Creating Layer Concat2_aod
I0419 18:12:49.547395 29296 net.cpp:406] Concat2_aod <- conv2_aod_relu2_aod_0_split_1
I0419 18:12:49.547399 29296 net.cpp:406] Concat2_aod <- conv3_aod_relu3_aod_0_split_0
I0419 18:12:49.547403 29296 net.cpp:380] Concat2_aod -> Concat2_aod
I0419 18:12:49.547423 29296 net.cpp:122] Setting up Concat2_aod
I0419 18:12:49.547428 29296 net.cpp:129] Top shape: 1 6 224 224 (301056)
I0419 18:12:49.547431 29296 net.cpp:137] Memory required for data: 12644364
I0419 18:12:49.547435 29296 layer_factory.hpp:77] Creating layer conv4_aod
I0419 18:12:49.547442 29296 net.cpp:84] Creating Layer conv4_aod
I0419 18:12:49.547446 29296 net.cpp:406] conv4_aod <- Concat2_aod
I0419 18:12:49.547449 29296 net.cpp:380] conv4_aod -> conv4_aod
I0419 18:12:49.548633 29296 net.cpp:122] Setting up conv4_aod
I0419 18:12:49.548661 29296 net.cpp:129] Top shape: 1 3 224 224 (150528)
I0419 18:12:49.548666 29296 net.cpp:137] Memory required for data: 13246476
I0419 18:12:49.548671 29296 layer_factory.hpp:77] Creating layer relu4_aod
I0419 18:12:49.548678 29296 net.cpp:84] Creating Layer relu4_aod
I0419 18:12:49.548682 29296 net.cpp:406] relu4_aod <- conv4_aod
I0419 18:12:49.548687 29296 net.cpp:367] relu4_aod -> conv4_aod (in-place)
I0419 18:12:49.548880 29296 net.cpp:122] Setting up relu4_aod
I0419 18:12:49.548892 29296 net.cpp:129] Top shape: 1 3 224 224 (150528)
I0419 18:12:49.548894 29296 net.cpp:137] Memory required for data: 13848588
I0419 18:12:49.548898 29296 layer_factory.hpp:77] Creating layer Concat3_aod
I0419 18:12:49.548916 29296 net.cpp:84] Creating Layer Concat3_aod
I0419 18:12:49.548920 29296 net.cpp:406] Concat3_aod <- conv1_aod_relu1_aod_0_split_2
I0419 18:12:49.548924 29296 net.cpp:406] Concat3_aod <- conv2_aod_relu2_aod_0_split_2
I0419 18:12:49.548928 29296 net.cpp:406] Concat3_aod <- conv3_aod_relu3_aod_0_split_1
I0419 18:12:49.548933 29296 net.cpp:406] Concat3_aod <- conv4_aod
I0419 18:12:49.548936 29296 net.cpp:380] Concat3_aod -> Concat3_aod
I0419 18:12:49.548959 29296 net.cpp:122] Setting up Concat3_aod
I0419 18:12:49.548965 29296 net.cpp:129] Top shape: 1 12 224 224 (602112)
I0419 18:12:49.548969 29296 net.cpp:137] Memory required for data: 16257036
I0419 18:12:49.548972 29296 layer_factory.hpp:77] Creating layer conv5_aod
I0419 18:12:49.548980 29296 net.cpp:84] Creating Layer conv5_aod
I0419 18:12:49.548983 29296 net.cpp:406] conv5_aod <- Concat3_aod
I0419 18:12:49.548988 29296 net.cpp:380] conv5_aod -> conv5_aod
I0419 18:12:49.550174 29296 net.cpp:122] Setting up conv5_aod
I0419 18:12:49.550187 29296 net.cpp:129] Top shape: 1 3 224 224 (150528)
I0419 18:12:49.550190 29296 net.cpp:137] Memory required for data: 16859148
I0419 18:12:49.550199 29296 layer_factory.hpp:77] Creating layer relu5_aod
I0419 18:12:49.550205 29296 net.cpp:84] Creating Layer relu5_aod
I0419 18:12:49.550209 29296 net.cpp:406] relu5_aod <- conv5_aod
I0419 18:12:49.550213 29296 net.cpp:380] relu5_aod -> K_aod
I0419 18:12:49.550647 29296 net.cpp:122] Setting up relu5_aod
I0419 18:12:49.550659 29296 net.cpp:129] Top shape: 1 3 224 224 (150528)
I0419 18:12:49.550662 29296 net.cpp:137] Memory required for data: 17461260
I0419 18:12:49.550667 29296 layer_factory.hpp:77] Creating layer K_aod_relu5_aod_0_split
I0419 18:12:49.550673 29296 net.cpp:84] Creating Layer K_aod_relu5_aod_0_split
I0419 18:12:49.550676 29296 net.cpp:406] K_aod_relu5_aod_0_split <- K_aod
I0419 18:12:49.550681 29296 net.cpp:380] K_aod_relu5_aod_0_split -> K_aod_relu5_aod_0_split_0
I0419 18:12:49.550688 29296 net.cpp:380] K_aod_relu5_aod_0_split -> K_aod_relu5_aod_0_split_1
I0419 18:12:49.550716 29296 net.cpp:122] Setting up K_aod_relu5_aod_0_split
I0419 18:12:49.550722 29296 net.cpp:129] Top shape: 1 3 224 224 (150528)
I0419 18:12:49.550726 29296 net.cpp:129] Top shape: 1 3 224 224 (150528)
I0419 18:12:49.550729 29296 net.cpp:137] Memory required for data: 18665484
I0419 18:12:49.550734 29296 layer_factory.hpp:77] Creating layer prod_aod
I0419 18:12:49.550755 29296 net.cpp:84] Creating Layer prod_aod
I0419 18:12:49.550762 29296 net.cpp:406] prod_aod <- data_input_0_split_1
I0419 18:12:49.550767 29296 net.cpp:406] prod_aod <- K_aod_relu5_aod_0_split_0
I0419 18:12:49.550771 29296 net.cpp:380] prod_aod -> prod_aod
I0419 18:12:49.550817 29296 net.cpp:122] Setting up prod_aod
I0419 18:12:49.550825 29296 net.cpp:129] Top shape: 1 3 224 224 (150528)
I0419 18:12:49.550828 29296 net.cpp:137] Memory required for data: 19267596
I0419 18:12:49.550832 29296 layer_factory.hpp:77] Creating layer eltwise_layer_aod
I0419 18:12:49.550838 29296 net.cpp:84] Creating Layer eltwise_layer_aod
I0419 18:12:49.550842 29296 net.cpp:406] eltwise_layer_aod <- prod_aod
I0419 18:12:49.550845 29296 net.cpp:406] eltwise_layer_aod <- K_aod_relu5_aod_0_split_1
I0419 18:12:49.550850 29296 net.cpp:380] eltwise_layer_aod -> eltwise_layer_aod
I0419 18:12:49.550868 29296 net.cpp:122] Setting up eltwise_layer_aod
I0419 18:12:49.550873 29296 net.cpp:129] Top shape: 1 3 224 224 (150528)
I0419 18:12:49.550875 29296 net.cpp:137] Memory required for data: 19869708
I0419 18:12:49.550879 29296 layer_factory.hpp:77] Creating layer sum_aod
I0419 18:12:49.550885 29296 net.cpp:84] Creating Layer sum_aod
I0419 18:12:49.550889 29296 net.cpp:406] sum_aod <- eltwise_layer_aod
I0419 18:12:49.550894 29296 net.cpp:380] sum_aod -> sum_aod
I0419 18:12:49.550909 29296 net.cpp:122] Setting up sum_aod
I0419 18:12:49.550914 29296 net.cpp:129] Top shape: 1 3 224 224 (150528)
I0419 18:12:49.550916 29296 net.cpp:137] Memory required for data: 20471820
I0419 18:12:49.550920 29296 layer_factory.hpp:77] Creating layer clip_aod
I0419 18:12:49.550925 29296 net.cpp:84] Creating Layer clip_aod
I0419 18:12:49.550928 29296 net.cpp:406] clip_aod <- sum_aod
I0419 18:12:49.550932 29296 net.cpp:367] clip_aod -> sum_aod (in-place)
I0419 18:12:49.551352 29296 net.cpp:122] Setting up clip_aod
I0419 18:12:49.551367 29296 net.cpp:129] Top shape: 1 3 224 224 (150528)
I0419 18:12:49.551370 29296 net.cpp:137] Memory required for data: 21073932
I0419 18:12:49.551373 29296 layer_factory.hpp:77] Creating layer conv1
I0419 18:12:49.551384 29296 net.cpp:84] Creating Layer conv1
I0419 18:12:49.551388 29296 net.cpp:406] conv1 <- sum_aod
I0419 18:12:49.551394 29296 net.cpp:380] conv1 -> conv1
I0419 18:12:49.553694 29296 net.cpp:122] Setting up conv1
I0419 18:12:49.553707 29296 net.cpp:129] Top shape: 1 64 112 112 (802816)
I0419 18:12:49.553711 29296 net.cpp:137] Memory required for data: 24285196
I0419 18:12:49.553716 29296 layer_factory.hpp:77] Creating layer scale_conv1
I0419 18:12:49.553740 29296 net.cpp:84] Creating Layer scale_conv1
I0419 18:12:49.553745 29296 net.cpp:406] scale_conv1 <- conv1
I0419 18:12:49.553751 29296 net.cpp:367] scale_conv1 -> conv1 (in-place)
I0419 18:12:49.553820 29296 layer_factory.hpp:77] Creating layer scale_conv1
I0419 18:12:49.553966 29296 net.cpp:122] Setting up scale_conv1
I0419 18:12:49.553975 29296 net.cpp:129] Top shape: 1 64 112 112 (802816)
I0419 18:12:49.553978 29296 net.cpp:137] Memory required for data: 27496460
I0419 18:12:49.553985 29296 layer_factory.hpp:77] Creating layer conv1_relu
I0419 18:12:49.553992 29296 net.cpp:84] Creating Layer conv1_relu
I0419 18:12:49.553994 29296 net.cpp:406] conv1_relu <- conv1
I0419 18:12:49.554000 29296 net.cpp:367] conv1_relu -> conv1 (in-place)
I0419 18:12:49.554231 29296 net.cpp:122] Setting up conv1_relu
I0419 18:12:49.554240 29296 net.cpp:129] Top shape: 1 64 112 112 (802816)
I0419 18:12:49.554244 29296 net.cpp:137] Memory required for data: 30707724
I0419 18:12:49.554247 29296 layer_factory.hpp:77] Creating layer pool1
I0419 18:12:49.554266 29296 net.cpp:84] Creating Layer pool1
I0419 18:12:49.554270 29296 net.cpp:406] pool1 <- conv1
I0419 18:12:49.554280 29296 net.cpp:380] pool1 -> pool1
I0419 18:12:49.554337 29296 net.cpp:122] Setting up pool1
I0419 18:12:49.554345 29296 net.cpp:129] Top shape: 1 64 56 56 (200704)
I0419 18:12:49.554348 29296 net.cpp:137] Memory required for data: 31510540
I0419 18:12:49.554352 29296 layer_factory.hpp:77] Creating layer pool1_pool1_0_split
I0419 18:12:49.554360 29296 net.cpp:84] Creating Layer pool1_pool1_0_split
I0419 18:12:49.554363 29296 net.cpp:406] pool1_pool1_0_split <- pool1
I0419 18:12:49.554368 29296 net.cpp:380] pool1_pool1_0_split -> pool1_pool1_0_split_0
I0419 18:12:49.554375 29296 net.cpp:380] pool1_pool1_0_split -> pool1_pool1_0_split_1
I0419 18:12:49.554404 29296 net.cpp:122] Setting up pool1_pool1_0_split
I0419 18:12:49.554410 29296 net.cpp:129] Top shape: 1 64 56 56 (200704)
I0419 18:12:49.554414 29296 net.cpp:129] Top shape: 1 64 56 56 (200704)
I0419 18:12:49.554417 29296 net.cpp:137] Memory required for data: 33116172
I0419 18:12:49.554420 29296 layer_factory.hpp:77] Creating layer res2a_branch1
I0419 18:12:49.554430 29296 net.cpp:84] Creating Layer res2a_branch1
I0419 18:12:49.554433 29296 net.cpp:406] res2a_branch1 <- pool1_pool1_0_split_0
I0419 18:12:49.554440 29296 net.cpp:380] res2a_branch1 -> res2a_branch1
I0419 18:12:49.556041 29296 net.cpp:122] Setting up res2a_branch1
I0419 18:12:49.556054 29296 net.cpp:129] Top shape: 1 256 56 56 (802816)
I0419 18:12:49.556058 29296 net.cpp:137] Memory required for data: 36327436
I0419 18:12:49.556063 29296 layer_factory.hpp:77] Creating layer scale2a_branch1
I0419 18:12:49.556073 29296 net.cpp:84] Creating Layer scale2a_branch1
I0419 18:12:49.556077 29296 net.cpp:406] scale2a_branch1 <- res2a_branch1
I0419 18:12:49.556082 29296 net.cpp:367] scale2a_branch1 -> res2a_branch1 (in-place)
I0419 18:12:49.556126 29296 layer_factory.hpp:77] Creating layer scale2a_branch1
I0419 18:12:49.556898 29296 net.cpp:122] Setting up scale2a_branch1
I0419 18:12:49.556910 29296 net.cpp:129] Top shape: 1 256 56 56 (802816)
I0419 18:12:49.556915 29296 net.cpp:137] Memory required for data: 39538700
I0419 18:12:49.556921 29296 layer_factory.hpp:77] Creating layer res2a_branch2a
I0419 18:12:49.556931 29296 net.cpp:84] Creating Layer res2a_branch2a
I0419 18:12:49.556934 29296 net.cpp:406] res2a_branch2a <- pool1_pool1_0_split_1
I0419 18:12:49.556941 29296 net.cpp:380] res2a_branch2a -> res2a_branch2a
I0419 18:12:49.558342 29296 net.cpp:122] Setting up res2a_branch2a
I0419 18:12:49.558356 29296 net.cpp:129] Top shape: 1 64 56 56 (200704)
I0419 18:12:49.558359 29296 net.cpp:137] Memory required for data: 40341516
I0419 18:12:49.558367 29296 layer_factory.hpp:77] Creating layer scale2a_branch2a
I0419 18:12:49.558377 29296 net.cpp:84] Creating Layer scale2a_branch2a
I0419 18:12:49.558380 29296 net.cpp:406] scale2a_branch2a <- res2a_branch2a
I0419 18:12:49.558388 29296 net.cpp:367] scale2a_branch2a -> res2a_branch2a (in-place)
I0419 18:12:49.558429 29296 layer_factory.hpp:77] Creating layer scale2a_branch2a
I0419 18:12:49.558528 29296 net.cpp:122] Setting up scale2a_branch2a
I0419 18:12:49.558535 29296 net.cpp:129] Top shape: 1 64 56 56 (200704)
I0419 18:12:49.558538 29296 net.cpp:137] Memory required for data: 41144332
I0419 18:12:49.558544 29296 layer_factory.hpp:77] Creating layer res2a_branch2a_relu
I0419 18:12:49.558554 29296 net.cpp:84] Creating Layer res2a_branch2a_relu
I0419 18:12:49.558558 29296 net.cpp:406] res2a_branch2a_relu <- res2a_branch2a
I0419 18:12:49.558562 29296 net.cpp:367] res2a_branch2a_relu -> res2a_branch2a (in-place)
I0419 18:12:49.559321 29296 net.cpp:122] Setting up res2a_branch2a_relu
I0419 18:12:49.559334 29296 net.cpp:129] Top shape: 1 64 56 56 (200704)
I0419 18:12:49.559337 29296 net.cpp:137] Memory required for data: 41947148
I0419 18:12:49.559341 29296 layer_factory.hpp:77] Creating layer res2a_branch2b
I0419 18:12:49.559351 29296 net.cpp:84] Creating Layer res2a_branch2b
I0419 18:12:49.559355 29296 net.cpp:406] res2a_branch2b <- res2a_branch2a
I0419 18:12:49.559362 29296 net.cpp:380] res2a_branch2b -> res2a_branch2b
I0419 18:12:49.561467 29296 net.cpp:122] Setting up res2a_branch2b
I0419 18:12:49.561481 29296 net.cpp:129] Top shape: 1 64 56 56 (200704)
I0419 18:12:49.561486 29296 net.cpp:137] Memory required for data: 42749964
I0419 18:12:49.561491 29296 layer_factory.hpp:77] Creating layer scale2a_branch2b
I0419 18:12:49.561501 29296 net.cpp:84] Creating Layer scale2a_branch2b
I0419 18:12:49.561503 29296 net.cpp:406] scale2a_branch2b <- res2a_branch2b
I0419 18:12:49.561509 29296 net.cpp:367] scale2a_branch2b -> res2a_branch2b (in-place)
I0419 18:12:49.561554 29296 layer_factory.hpp:77] Creating layer scale2a_branch2b
I0419 18:12:49.561695 29296 net.cpp:122] Setting up scale2a_branch2b
I0419 18:12:49.561704 29296 net.cpp:129] Top shape: 1 64 56 56 (200704)
I0419 18:12:49.561707 29296 net.cpp:137] Memory required for data: 43552780
I0419 18:12:49.561713 29296 layer_factory.hpp:77] Creating layer res2a_branch2b_relu
I0419 18:12:49.561720 29296 net.cpp:84] Creating Layer res2a_branch2b_relu
I0419 18:12:49.561723 29296 net.cpp:406] res2a_branch2b_relu <- res2a_branch2b
I0419 18:12:49.561728 29296 net.cpp:367] res2a_branch2b_relu -> res2a_branch2b (in-place)
I0419 18:12:49.561983 29296 net.cpp:122] Setting up res2a_branch2b_relu
I0419 18:12:49.561995 29296 net.cpp:129] Top shape: 1 64 56 56 (200704)
I0419 18:12:49.561998 29296 net.cpp:137] Memory required for data: 44355596
I0419 18:12:49.562002 29296 layer_factory.hpp:77] Creating layer res2a_branch2c
I0419 18:12:49.562011 29296 net.cpp:84] Creating Layer res2a_branch2c
I0419 18:12:49.562014 29296 net.cpp:406] res2a_branch2c <- res2a_branch2b
I0419 18:12:49.562024 29296 net.cpp:380] res2a_branch2c -> res2a_branch2c
I0419 18:12:49.563633 29296 net.cpp:122] Setting up res2a_branch2c
I0419 18:12:49.563647 29296 net.cpp:129] Top shape: 1 256 56 56 (802816)
I0419 18:12:49.563665 29296 net.cpp:137] Memory required for data: 47566860
I0419 18:12:49.563671 29296 layer_factory.hpp:77] Creating layer scale2a_branch2c
I0419 18:12:49.563681 29296 net.cpp:84] Creating Layer scale2a_branch2c
I0419 18:12:49.563685 29296 net.cpp:406] scale2a_branch2c <- res2a_branch2c
I0419 18:12:49.563690 29296 net.cpp:367] scale2a_branch2c -> res2a_branch2c (in-place)
I0419 18:12:49.563741 29296 layer_factory.hpp:77] Creating layer scale2a_branch2c
I0419 18:12:49.563850 29296 net.cpp:122] Setting up scale2a_branch2c
I0419 18:12:49.563858 29296 net.cpp:129] Top shape: 1 256 56 56 (802816)
I0419 18:12:49.563861 29296 net.cpp:137] Memory required for data: 50778124
I0419 18:12:49.563868 29296 layer_factory.hpp:77] Creating layer res2a
I0419 18:12:49.563874 29296 net.cpp:84] Creating Layer res2a
I0419 18:12:49.563877 29296 net.cpp:406] res2a <- res2a_branch1
I0419 18:12:49.563882 29296 net.cpp:406] res2a <- res2a_branch2c
I0419 18:12:49.563889 29296 net.cpp:380] res2a -> res2a
I0419 18:12:49.563925 29296 net.cpp:122] Setting up res2a
I0419 18:12:49.563932 29296 net.cpp:129] Top shape: 1 256 56 56 (802816)
I0419 18:12:49.563935 29296 net.cpp:137] Memory required for data: 53989388
I0419 18:12:49.563940 29296 layer_factory.hpp:77] Creating layer res2a_relu
I0419 18:12:49.563944 29296 net.cpp:84] Creating Layer res2a_relu
I0419 18:12:49.563947 29296 net.cpp:406] res2a_relu <- res2a
I0419 18:12:49.563951 29296 net.cpp:367] res2a_relu -> res2a (in-place)
I0419 18:12:49.564383 29296 net.cpp:122] Setting up res2a_relu
I0419 18:12:49.564394 29296 net.cpp:129] Top shape: 1 256 56 56 (802816)
I0419 18:12:49.564397 29296 net.cpp:137] Memory required for data: 57200652
I0419 18:12:49.564401 29296 layer_factory.hpp:77] Creating layer res2a_res2a_relu_0_split
I0419 18:12:49.564410 29296 net.cpp:84] Creating Layer res2a_res2a_relu_0_split
I0419 18:12:49.564414 29296 net.cpp:406] res2a_res2a_relu_0_split <- res2a
I0419 18:12:49.564419 29296 net.cpp:380] res2a_res2a_relu_0_split -> res2a_res2a_relu_0_split_0
I0419 18:12:49.564425 29296 net.cpp:380] res2a_res2a_relu_0_split -> res2a_res2a_relu_0_split_1
I0419 18:12:49.564467 29296 net.cpp:122] Setting up res2a_res2a_relu_0_split
I0419 18:12:49.564474 29296 net.cpp:129] Top shape: 1 256 56 56 (802816)
I0419 18:12:49.564478 29296 net.cpp:129] Top shape: 1 256 56 56 (802816)
I0419 18:12:49.564481 29296 net.cpp:137] Memory required for data: 63623180
I0419 18:12:49.564484 29296 layer_factory.hpp:77] Creating layer res2b_branch2a
I0419 18:12:49.564494 29296 net.cpp:84] Creating Layer res2b_branch2a
I0419 18:12:49.564498 29296 net.cpp:406] res2b_branch2a <- res2a_res2a_relu_0_split_0
I0419 18:12:49.564503 29296 net.cpp:380] res2b_branch2a -> res2b_branch2a
I0419 18:12:49.565954 29296 net.cpp:122] Setting up res2b_branch2a
I0419 18:12:49.565968 29296 net.cpp:129] Top shape: 1 64 56 56 (200704)
I0419 18:12:49.565970 29296 net.cpp:137] Memory required for data: 64425996
I0419 18:12:49.565976 29296 layer_factory.hpp:77] Creating layer scale2b_branch2a
I0419 18:12:49.565985 29296 net.cpp:84] Creating Layer scale2b_branch2a
I0419 18:12:49.565989 29296 net.cpp:406] scale2b_branch2a <- res2b_branch2a
I0419 18:12:49.565994 29296 net.cpp:367] scale2b_branch2a -> res2b_branch2a (in-place)
I0419 18:12:49.566038 29296 layer_factory.hpp:77] Creating layer scale2b_branch2a
I0419 18:12:49.566145 29296 net.cpp:122] Setting up scale2b_branch2a
I0419 18:12:49.566154 29296 net.cpp:129] Top shape: 1 64 56 56 (200704)
I0419 18:12:49.566156 29296 net.cpp:137] Memory required for data: 65228812
I0419 18:12:49.566162 29296 layer_factory.hpp:77] Creating layer res2b_branch2a_relu
I0419 18:12:49.566169 29296 net.cpp:84] Creating Layer res2b_branch2a_relu
I0419 18:12:49.566171 29296 net.cpp:406] res2b_branch2a_relu <- res2b_branch2a
I0419 18:12:49.566175 29296 net.cpp:367] res2b_branch2a_relu -> res2b_branch2a (in-place)
I0419 18:12:49.566645 29296 net.cpp:122] Setting up res2b_branch2a_relu
I0419 18:12:49.566658 29296 net.cpp:129] Top shape: 1 64 56 56 (200704)
I0419 18:12:49.566663 29296 net.cpp:137] Memory required for data: 66031628
I0419 18:12:49.566666 29296 layer_factory.hpp:77] Creating layer res2b_branch2b
I0419 18:12:49.566679 29296 net.cpp:84] Creating Layer res2b_branch2b
I0419 18:12:49.566684 29296 net.cpp:406] res2b_branch2b <- res2b_branch2a
I0419 18:12:49.566691 29296 net.cpp:380] res2b_branch2b -> res2b_branch2b
I0419 18:12:49.568107 29296 net.cpp:122] Setting up res2b_branch2b
I0419 18:12:49.568120 29296 net.cpp:129] Top shape: 1 64 56 56 (200704)
I0419 18:12:49.568125 29296 net.cpp:137] Memory required for data: 66834444
I0419 18:12:49.568130 29296 layer_factory.hpp:77] Creating layer scale2b_branch2b
I0419 18:12:49.568136 29296 net.cpp:84] Creating Layer scale2b_branch2b
I0419 18:12:49.568140 29296 net.cpp:406] scale2b_branch2b <- res2b_branch2b
I0419 18:12:49.568147 29296 net.cpp:367] scale2b_branch2b -> res2b_branch2b (in-place)
I0419 18:12:49.568190 29296 layer_factory.hpp:77] Creating layer scale2b_branch2b
I0419 18:12:49.568297 29296 net.cpp:122] Setting up scale2b_branch2b
I0419 18:12:49.568305 29296 net.cpp:129] Top shape: 1 64 56 56 (200704)
I0419 18:12:49.568308 29296 net.cpp:137] Memory required for data: 67637260
I0419 18:12:49.568313 29296 layer_factory.hpp:77] Creating layer res2b_branch2b_relu
I0419 18:12:49.568320 29296 net.cpp:84] Creating Layer res2b_branch2b_relu
I0419 18:12:49.568325 29296 net.cpp:406] res2b_branch2b_relu <- res2b_branch2b
I0419 18:12:49.568330 29296 net.cpp:367] res2b_branch2b_relu -> res2b_branch2b (in-place)
I0419 18:12:49.568568 29296 net.cpp:122] Setting up res2b_branch2b_relu
I0419 18:12:49.568578 29296 net.cpp:129] Top shape: 1 64 56 56 (200704)
I0419 18:12:49.568581 29296 net.cpp:137] Memory required for data: 68440076
I0419 18:12:49.568591 29296 layer_factory.hpp:77] Creating layer res2b_branch2c
I0419 18:12:49.568616 29296 net.cpp:84] Creating Layer res2b_branch2c
I0419 18:12:49.568620 29296 net.cpp:406] res2b_branch2c <- res2b_branch2b
I0419 18:12:49.568629 29296 net.cpp:380] res2b_branch2c -> res2b_branch2c
I0419 18:12:49.570237 29296 net.cpp:122] Setting up res2b_branch2c
I0419 18:12:49.570250 29296 net.cpp:129] Top shape: 1 256 56 56 (802816)
I0419 18:12:49.570253 29296 net.cpp:137] Memory required for data: 71651340
I0419 18:12:49.570258 29296 layer_factory.hpp:77] Creating layer scale2b_branch2c
I0419 18:12:49.570268 29296 net.cpp:84] Creating Layer scale2b_branch2c
I0419 18:12:49.570272 29296 net.cpp:406] scale2b_branch2c <- res2b_branch2c
I0419 18:12:49.570277 29296 net.cpp:367] scale2b_branch2c -> res2b_branch2c (in-place)
I0419 18:12:49.570327 29296 layer_factory.hpp:77] Creating layer scale2b_branch2c
I0419 18:12:49.570431 29296 net.cpp:122] Setting up scale2b_branch2c
I0419 18:12:49.570438 29296 net.cpp:129] Top shape: 1 256 56 56 (802816)
I0419 18:12:49.570441 29296 net.cpp:137] Memory required for data: 74862604
I0419 18:12:49.570452 29296 layer_factory.hpp:77] Creating layer res2b
I0419 18:12:49.570461 29296 net.cpp:84] Creating Layer res2b
I0419 18:12:49.570464 29296 net.cpp:406] res2b <- res2a_res2a_relu_0_split_1
I0419 18:12:49.570468 29296 net.cpp:406] res2b <- res2b_branch2c
I0419 18:12:49.570472 29296 net.cpp:380] res2b -> res2b
I0419 18:12:49.570497 29296 net.cpp:122] Setting up res2b
I0419 18:12:49.570502 29296 net.cpp:129] Top shape: 1 256 56 56 (802816)
I0419 18:12:49.570505 29296 net.cpp:137] Memory required for data: 78073868
I0419 18:12:49.570509 29296 layer_factory.hpp:77] Creating layer res2b_relu
I0419 18:12:49.570514 29296 net.cpp:84] Creating Layer res2b_relu
I0419 18:12:49.570518 29296 net.cpp:406] res2b_relu <- res2b
I0419 18:12:49.570521 29296 net.cpp:367] res2b_relu -> res2b (in-place)
I0419 18:12:49.571025 29296 net.cpp:122] Setting up res2b_relu
I0419 18:12:49.571038 29296 net.cpp:129] Top shape: 1 256 56 56 (802816)
I0419 18:12:49.571040 29296 net.cpp:137] Memory required for data: 81285132
I0419 18:12:49.571044 29296 layer_factory.hpp:77] Creating layer res2b_res2b_relu_0_split
I0419 18:12:49.571053 29296 net.cpp:84] Creating Layer res2b_res2b_relu_0_split
I0419 18:12:49.571056 29296 net.cpp:406] res2b_res2b_relu_0_split <- res2b
I0419 18:12:49.571061 29296 net.cpp:380] res2b_res2b_relu_0_split -> res2b_res2b_relu_0_split_0
I0419 18:12:49.571066 29296 net.cpp:380] res2b_res2b_relu_0_split -> res2b_res2b_relu_0_split_1
I0419 18:12:49.571108 29296 net.cpp:122] Setting up res2b_res2b_relu_0_split
I0419 18:12:49.571113 29296 net.cpp:129] Top shape: 1 256 56 56 (802816)
I0419 18:12:49.571117 29296 net.cpp:129] Top shape: 1 256 56 56 (802816)
I0419 18:12:49.571120 29296 net.cpp:137] Memory required for data: 87707660
I0419 18:12:49.571125 29296 layer_factory.hpp:77] Creating layer res2c_branch2a
I0419 18:12:49.571133 29296 net.cpp:84] Creating Layer res2c_branch2a
I0419 18:12:49.571137 29296 net.cpp:406] res2c_branch2a <- res2b_res2b_relu_0_split_0
I0419 18:12:49.571141 29296 net.cpp:380] res2c_branch2a -> res2c_branch2a
I0419 18:12:49.572494 29296 net.cpp:122] Setting up res2c_branch2a
I0419 18:12:49.572506 29296 net.cpp:129] Top shape: 1 64 56 56 (200704)
I0419 18:12:49.572510 29296 net.cpp:137] Memory required for data: 88510476
I0419 18:12:49.572515 29296 layer_factory.hpp:77] Creating layer scale2c_branch2a
I0419 18:12:49.572525 29296 net.cpp:84] Creating Layer scale2c_branch2a
I0419 18:12:49.572528 29296 net.cpp:406] scale2c_branch2a <- res2c_branch2a
I0419 18:12:49.572533 29296 net.cpp:367] scale2c_branch2a -> res2c_branch2a (in-place)
I0419 18:12:49.572576 29296 layer_factory.hpp:77] Creating layer scale2c_branch2a
I0419 18:12:49.572716 29296 net.cpp:122] Setting up scale2c_branch2a
I0419 18:12:49.572726 29296 net.cpp:129] Top shape: 1 64 56 56 (200704)
I0419 18:12:49.572729 29296 net.cpp:137] Memory required for data: 89313292
I0419 18:12:49.572736 29296 layer_factory.hpp:77] Creating layer res2c_branch2a_relu
I0419 18:12:49.572741 29296 net.cpp:84] Creating Layer res2c_branch2a_relu
I0419 18:12:49.572744 29296 net.cpp:406] res2c_branch2a_relu <- res2c_branch2a
I0419 18:12:49.572751 29296 net.cpp:367] res2c_branch2a_relu -> res2c_branch2a (in-place)
I0419 18:12:49.573010 29296 net.cpp:122] Setting up res2c_branch2a_relu
I0419 18:12:49.573020 29296 net.cpp:129] Top shape: 1 64 56 56 (200704)
I0419 18:12:49.573024 29296 net.cpp:137] Memory required for data: 90116108
I0419 18:12:49.573027 29296 layer_factory.hpp:77] Creating layer res2c_branch2b
I0419 18:12:49.573037 29296 net.cpp:84] Creating Layer res2c_branch2b
I0419 18:12:49.573040 29296 net.cpp:406] res2c_branch2b <- res2c_branch2a
I0419 18:12:49.573048 29296 net.cpp:380] res2c_branch2b -> res2c_branch2b
I0419 18:12:49.574424 29296 net.cpp:122] Setting up res2c_branch2b
I0419 18:12:49.574437 29296 net.cpp:129] Top shape: 1 64 56 56 (200704)
I0419 18:12:49.574440 29296 net.cpp:137] Memory required for data: 90918924
I0419 18:12:49.574446 29296 layer_factory.hpp:77] Creating layer scale2c_branch2b
I0419 18:12:49.574455 29296 net.cpp:84] Creating Layer scale2c_branch2b
I0419 18:12:49.574460 29296 net.cpp:406] scale2c_branch2b <- res2c_branch2b
I0419 18:12:49.574465 29296 net.cpp:367] scale2c_branch2b -> res2c_branch2b (in-place)
I0419 18:12:49.574508 29296 layer_factory.hpp:77] Creating layer scale2c_branch2b
I0419 18:12:49.574625 29296 net.cpp:122] Setting up scale2c_branch2b
I0419 18:12:49.574632 29296 net.cpp:129] Top shape: 1 64 56 56 (200704)
I0419 18:12:49.574635 29296 net.cpp:137] Memory required for data: 91721740
I0419 18:12:49.574641 29296 layer_factory.hpp:77] Creating layer res2c_branch2b_relu
I0419 18:12:49.574647 29296 net.cpp:84] Creating Layer res2c_branch2b_relu
I0419 18:12:49.574651 29296 net.cpp:406] res2c_branch2b_relu <- res2c_branch2b
I0419 18:12:49.574656 29296 net.cpp:367] res2c_branch2b_relu -> res2c_branch2b (in-place)
I0419 18:12:49.575103 29296 net.cpp:122] Setting up res2c_branch2b_relu
I0419 18:12:49.575115 29296 net.cpp:129] Top shape: 1 64 56 56 (200704)
I0419 18:12:49.575119 29296 net.cpp:137] Memory required for data: 92524556
I0419 18:12:49.575122 29296 layer_factory.hpp:77] Creating layer res2c_branch2c
I0419 18:12:49.575135 29296 net.cpp:84] Creating Layer res2c_branch2c
I0419 18:12:49.575139 29296 net.cpp:406] res2c_branch2c <- res2c_branch2b
I0419 18:12:49.575147 29296 net.cpp:380] res2c_branch2c -> res2c_branch2c
I0419 18:12:49.576740 29296 net.cpp:122] Setting up res2c_branch2c
I0419 18:12:49.576753 29296 net.cpp:129] Top shape: 1 256 56 56 (802816)
I0419 18:12:49.576756 29296 net.cpp:137] Memory required for data: 95735820
I0419 18:12:49.576762 29296 layer_factory.hpp:77] Creating layer scale2c_branch2c
I0419 18:12:49.576771 29296 net.cpp:84] Creating Layer scale2c_branch2c
I0419 18:12:49.576776 29296 net.cpp:406] scale2c_branch2c <- res2c_branch2c
I0419 18:12:49.576781 29296 net.cpp:367] scale2c_branch2c -> res2c_branch2c (in-place)
I0419 18:12:49.576828 29296 layer_factory.hpp:77] Creating layer scale2c_branch2c
I0419 18:12:49.576934 29296 net.cpp:122] Setting up scale2c_branch2c
I0419 18:12:49.576941 29296 net.cpp:129] Top shape: 1 256 56 56 (802816)
I0419 18:12:49.576946 29296 net.cpp:137] Memory required for data: 98947084
I0419 18:12:49.576951 29296 layer_factory.hpp:77] Creating layer res2c
I0419 18:12:49.576956 29296 net.cpp:84] Creating Layer res2c
I0419 18:12:49.576961 29296 net.cpp:406] res2c <- res2b_res2b_relu_0_split_1
I0419 18:12:49.576964 29296 net.cpp:406] res2c <- res2c_branch2c
I0419 18:12:49.576970 29296 net.cpp:380] res2c -> res2c
I0419 18:12:49.576994 29296 net.cpp:122] Setting up res2c
I0419 18:12:49.577002 29296 net.cpp:129] Top shape: 1 256 56 56 (802816)
I0419 18:12:49.577004 29296 net.cpp:137] Memory required for data: 102158348
I0419 18:12:49.577008 29296 layer_factory.hpp:77] Creating layer res2c_relu
I0419 18:12:49.577013 29296 net.cpp:84] Creating Layer res2c_relu
I0419 18:12:49.577016 29296 net.cpp:406] res2c_relu <- res2c
I0419 18:12:49.577020 29296 net.cpp:367] res2c_relu -> res2c (in-place)
I0419 18:12:49.577706 29296 net.cpp:122] Setting up res2c_relu
I0419 18:12:49.577721 29296 net.cpp:129] Top shape: 1 256 56 56 (802816)
I0419 18:12:49.577725 29296 net.cpp:137] Memory required for data: 105369612
I0419 18:12:49.577729 29296 layer_factory.hpp:77] Creating layer res2c_res2c_relu_0_split
I0419 18:12:49.577735 29296 net.cpp:84] Creating Layer res2c_res2c_relu_0_split
I0419 18:12:49.577739 29296 net.cpp:406] res2c_res2c_relu_0_split <- res2c
I0419 18:12:49.577744 29296 net.cpp:380] res2c_res2c_relu_0_split -> res2c_res2c_relu_0_split_0
I0419 18:12:49.577750 29296 net.cpp:380] res2c_res2c_relu_0_split -> res2c_res2c_relu_0_split_1
I0419 18:12:49.577793 29296 net.cpp:122] Setting up res2c_res2c_relu_0_split
I0419 18:12:49.577800 29296 net.cpp:129] Top shape: 1 256 56 56 (802816)
I0419 18:12:49.577805 29296 net.cpp:129] Top shape: 1 256 56 56 (802816)
I0419 18:12:49.577807 29296 net.cpp:137] Memory required for data: 111792140
I0419 18:12:49.577811 29296 layer_factory.hpp:77] Creating layer res3a_branch1
I0419 18:12:49.577821 29296 net.cpp:84] Creating Layer res3a_branch1
I0419 18:12:49.577824 29296 net.cpp:406] res3a_branch1 <- res2c_res2c_relu_0_split_0
I0419 18:12:49.577831 29296 net.cpp:380] res3a_branch1 -> res3a_branch1
I0419 18:12:49.580013 29296 net.cpp:122] Setting up res3a_branch1
I0419 18:12:49.580027 29296 net.cpp:129] Top shape: 1 512 28 28 (401408)
I0419 18:12:49.580031 29296 net.cpp:137] Memory required for data: 113397772
I0419 18:12:49.580036 29296 layer_factory.hpp:77] Creating layer scale3a_branch1
I0419 18:12:49.580051 29296 net.cpp:84] Creating Layer scale3a_branch1
I0419 18:12:49.580055 29296 net.cpp:406] scale3a_branch1 <- res3a_branch1
I0419 18:12:49.580061 29296 net.cpp:367] scale3a_branch1 -> res3a_branch1 (in-place)
I0419 18:12:49.580111 29296 layer_factory.hpp:77] Creating layer scale3a_branch1
I0419 18:12:49.580214 29296 net.cpp:122] Setting up scale3a_branch1
I0419 18:12:49.580221 29296 net.cpp:129] Top shape: 1 512 28 28 (401408)
I0419 18:12:49.580224 29296 net.cpp:137] Memory required for data: 115003404
I0419 18:12:49.580230 29296 layer_factory.hpp:77] Creating layer res3a_branch2a
I0419 18:12:49.580241 29296 net.cpp:84] Creating Layer res3a_branch2a
I0419 18:12:49.580245 29296 net.cpp:406] res3a_branch2a <- res2c_res2c_relu_0_split_1
I0419 18:12:49.580251 29296 net.cpp:380] res3a_branch2a -> res3a_branch2a
I0419 18:12:49.581656 29296 net.cpp:122] Setting up res3a_branch2a
I0419 18:12:49.581670 29296 net.cpp:129] Top shape: 1 128 28 28 (100352)
I0419 18:12:49.581689 29296 net.cpp:137] Memory required for data: 115404812
I0419 18:12:49.581694 29296 layer_factory.hpp:77] Creating layer scale3a_branch2a
I0419 18:12:49.581704 29296 net.cpp:84] Creating Layer scale3a_branch2a
I0419 18:12:49.581708 29296 net.cpp:406] scale3a_branch2a <- res3a_branch2a
I0419 18:12:49.581713 29296 net.cpp:367] scale3a_branch2a -> res3a_branch2a (in-place)
I0419 18:12:49.581763 29296 layer_factory.hpp:77] Creating layer scale3a_branch2a
I0419 18:12:49.581876 29296 net.cpp:122] Setting up scale3a_branch2a
I0419 18:12:49.581884 29296 net.cpp:129] Top shape: 1 128 28 28 (100352)
I0419 18:12:49.581887 29296 net.cpp:137] Memory required for data: 115806220
I0419 18:12:49.581893 29296 layer_factory.hpp:77] Creating layer res3a_branch2a_relu
I0419 18:12:49.581899 29296 net.cpp:84] Creating Layer res3a_branch2a_relu
I0419 18:12:49.581903 29296 net.cpp:406] res3a_branch2a_relu <- res3a_branch2a
I0419 18:12:49.581910 29296 net.cpp:367] res3a_branch2a_relu -> res3a_branch2a (in-place)
I0419 18:12:49.582162 29296 net.cpp:122] Setting up res3a_branch2a_relu
I0419 18:12:49.582172 29296 net.cpp:129] Top shape: 1 128 28 28 (100352)
I0419 18:12:49.582175 29296 net.cpp:137] Memory required for data: 116207628
I0419 18:12:49.582180 29296 layer_factory.hpp:77] Creating layer res3a_branch2b
I0419 18:12:49.582190 29296 net.cpp:84] Creating Layer res3a_branch2b
I0419 18:12:49.582193 29296 net.cpp:406] res3a_branch2b <- res3a_branch2a
I0419 18:12:49.582199 29296 net.cpp:380] res3a_branch2b -> res3a_branch2b
I0419 18:12:49.584638 29296 net.cpp:122] Setting up res3a_branch2b
I0419 18:12:49.584652 29296 net.cpp:129] Top shape: 1 128 28 28 (100352)
I0419 18:12:49.584671 29296 net.cpp:137] Memory required for data: 116609036
I0419 18:12:49.584677 29296 layer_factory.hpp:77] Creating layer scale3a_branch2b
I0419 18:12:49.584687 29296 net.cpp:84] Creating Layer scale3a_branch2b
I0419 18:12:49.584692 29296 net.cpp:406] scale3a_branch2b <- res3a_branch2b
I0419 18:12:49.584697 29296 net.cpp:367] scale3a_branch2b -> res3a_branch2b (in-place)
I0419 18:12:49.584746 29296 layer_factory.hpp:77] Creating layer scale3a_branch2b
I0419 18:12:49.584861 29296 net.cpp:122] Setting up scale3a_branch2b
I0419 18:12:49.584868 29296 net.cpp:129] Top shape: 1 128 28 28 (100352)
I0419 18:12:49.584872 29296 net.cpp:137] Memory required for data: 117010444
I0419 18:12:49.584877 29296 layer_factory.hpp:77] Creating layer res3a_branch2b_relu
I0419 18:12:49.584883 29296 net.cpp:84] Creating Layer res3a_branch2b_relu
I0419 18:12:49.584887 29296 net.cpp:406] res3a_branch2b_relu <- res3a_branch2b
I0419 18:12:49.584893 29296 net.cpp:367] res3a_branch2b_relu -> res3a_branch2b (in-place)
I0419 18:12:49.585363 29296 net.cpp:122] Setting up res3a_branch2b_relu
I0419 18:12:49.585377 29296 net.cpp:129] Top shape: 1 128 28 28 (100352)
I0419 18:12:49.585381 29296 net.cpp:137] Memory required for data: 117411852
I0419 18:12:49.585384 29296 layer_factory.hpp:77] Creating layer res3a_branch2c
I0419 18:12:49.585393 29296 net.cpp:84] Creating Layer res3a_branch2c
I0419 18:12:49.585397 29296 net.cpp:406] res3a_branch2c <- res3a_branch2b
I0419 18:12:49.585403 29296 net.cpp:380] res3a_branch2c -> res3a_branch2c
I0419 18:12:49.586874 29296 net.cpp:122] Setting up res3a_branch2c
I0419 18:12:49.586889 29296 net.cpp:129] Top shape: 1 512 28 28 (401408)
I0419 18:12:49.586892 29296 net.cpp:137] Memory required for data: 119017484
I0419 18:12:49.586897 29296 layer_factory.hpp:77] Creating layer scale3a_branch2c
I0419 18:12:49.586905 29296 net.cpp:84] Creating Layer scale3a_branch2c
I0419 18:12:49.586908 29296 net.cpp:406] scale3a_branch2c <- res3a_branch2c
I0419 18:12:49.586915 29296 net.cpp:367] scale3a_branch2c -> res3a_branch2c (in-place)
I0419 18:12:49.586962 29296 layer_factory.hpp:77] Creating layer scale3a_branch2c
I0419 18:12:49.587069 29296 net.cpp:122] Setting up scale3a_branch2c
I0419 18:12:49.587075 29296 net.cpp:129] Top shape: 1 512 28 28 (401408)
I0419 18:12:49.587080 29296 net.cpp:137] Memory required for data: 120623116
I0419 18:12:49.587085 29296 layer_factory.hpp:77] Creating layer res3a
I0419 18:12:49.587090 29296 net.cpp:84] Creating Layer res3a
I0419 18:12:49.587095 29296 net.cpp:406] res3a <- res3a_branch1
I0419 18:12:49.587098 29296 net.cpp:406] res3a <- res3a_branch2c
I0419 18:12:49.587105 29296 net.cpp:380] res3a -> res3a
I0419 18:12:49.587127 29296 net.cpp:122] Setting up res3a
I0419 18:12:49.587134 29296 net.cpp:129] Top shape: 1 512 28 28 (401408)
I0419 18:12:49.587137 29296 net.cpp:137] Memory required for data: 122228748
I0419 18:12:49.587141 29296 layer_factory.hpp:77] Creating layer res3a_relu
I0419 18:12:49.587148 29296 net.cpp:84] Creating Layer res3a_relu
I0419 18:12:49.587152 29296 net.cpp:406] res3a_relu <- res3a
I0419 18:12:49.587155 29296 net.cpp:367] res3a_relu -> res3a (in-place)
I0419 18:12:49.587496 29296 net.cpp:122] Setting up res3a_relu
I0419 18:12:49.587508 29296 net.cpp:129] Top shape: 1 512 28 28 (401408)
I0419 18:12:49.587522 29296 net.cpp:137] Memory required for data: 123834380
I0419 18:12:49.587527 29296 layer_factory.hpp:77] Creating layer res3a_res3a_relu_0_split
I0419 18:12:49.587533 29296 net.cpp:84] Creating Layer res3a_res3a_relu_0_split
I0419 18:12:49.587538 29296 net.cpp:406] res3a_res3a_relu_0_split <- res3a
I0419 18:12:49.587544 29296 net.cpp:380] res3a_res3a_relu_0_split -> res3a_res3a_relu_0_split_0
I0419 18:12:49.587551 29296 net.cpp:380] res3a_res3a_relu_0_split -> res3a_res3a_relu_0_split_1
I0419 18:12:49.587604 29296 net.cpp:122] Setting up res3a_res3a_relu_0_split
I0419 18:12:49.587613 29296 net.cpp:129] Top shape: 1 512 28 28 (401408)
I0419 18:12:49.587618 29296 net.cpp:129] Top shape: 1 512 28 28 (401408)
I0419 18:12:49.587621 29296 net.cpp:137] Memory required for data: 127045644
I0419 18:12:49.587625 29296 layer_factory.hpp:77] Creating layer res3b1_branch2a
I0419 18:12:49.587635 29296 net.cpp:84] Creating Layer res3b1_branch2a
I0419 18:12:49.587640 29296 net.cpp:406] res3b1_branch2a <- res3a_res3a_relu_0_split_0
I0419 18:12:49.587646 29296 net.cpp:380] res3b1_branch2a -> res3b1_branch2a
I0419 18:12:49.590059 29296 net.cpp:122] Setting up res3b1_branch2a
I0419 18:12:49.590072 29296 net.cpp:129] Top shape: 1 128 28 28 (100352)
I0419 18:12:49.590076 29296 net.cpp:137] Memory required for data: 127447052
I0419 18:12:49.590081 29296 layer_factory.hpp:77] Creating layer scale3b1_branch2a
I0419 18:12:49.590088 29296 net.cpp:84] Creating Layer scale3b1_branch2a
I0419 18:12:49.590092 29296 net.cpp:406] scale3b1_branch2a <- res3b1_branch2a
I0419 18:12:49.590100 29296 net.cpp:367] scale3b1_branch2a -> res3b1_branch2a (in-place)
I0419 18:12:49.590148 29296 layer_factory.hpp:77] Creating layer scale3b1_branch2a
I0419 18:12:49.590260 29296 net.cpp:122] Setting up scale3b1_branch2a
I0419 18:12:49.590266 29296 net.cpp:129] Top shape: 1 128 28 28 (100352)
I0419 18:12:49.590270 29296 net.cpp:137] Memory required for data: 127848460
I0419 18:12:49.590276 29296 layer_factory.hpp:77] Creating layer res3b1_branch2a_relu
I0419 18:12:49.590281 29296 net.cpp:84] Creating Layer res3b1_branch2a_relu
I0419 18:12:49.590284 29296 net.cpp:406] res3b1_branch2a_relu <- res3b1_branch2a
I0419 18:12:49.590288 29296 net.cpp:367] res3b1_branch2a_relu -> res3b1_branch2a (in-place)
I0419 18:12:49.590790 29296 net.cpp:122] Setting up res3b1_branch2a_relu
I0419 18:12:49.590802 29296 net.cpp:129] Top shape: 1 128 28 28 (100352)
I0419 18:12:49.590806 29296 net.cpp:137] Memory required for data: 128249868
I0419 18:12:49.590811 29296 layer_factory.hpp:77] Creating layer res3b1_branch2b
I0419 18:12:49.590821 29296 net.cpp:84] Creating Layer res3b1_branch2b
I0419 18:12:49.590826 29296 net.cpp:406] res3b1_branch2b <- res3b1_branch2a
I0419 18:12:49.590833 29296 net.cpp:380] res3b1_branch2b -> res3b1_branch2b
I0419 18:12:49.593277 29296 net.cpp:122] Setting up res3b1_branch2b
I0419 18:12:49.593293 29296 net.cpp:129] Top shape: 1 128 28 28 (100352)
I0419 18:12:49.593297 29296 net.cpp:137] Memory required for data: 128651276
I0419 18:12:49.593302 29296 layer_factory.hpp:77] Creating layer scale3b1_branch2b
I0419 18:12:49.593310 29296 net.cpp:84] Creating Layer scale3b1_branch2b
I0419 18:12:49.593313 29296 net.cpp:406] scale3b1_branch2b <- res3b1_branch2b
I0419 18:12:49.593320 29296 net.cpp:367] scale3b1_branch2b -> res3b1_branch2b (in-place)
I0419 18:12:49.593369 29296 layer_factory.hpp:77] Creating layer scale3b1_branch2b
I0419 18:12:49.593478 29296 net.cpp:122] Setting up scale3b1_branch2b
I0419 18:12:49.593487 29296 net.cpp:129] Top shape: 1 128 28 28 (100352)
I0419 18:12:49.593492 29296 net.cpp:137] Memory required for data: 129052684
I0419 18:12:49.593497 29296 layer_factory.hpp:77] Creating layer res3b1_branch2b_relu
I0419 18:12:49.593502 29296 net.cpp:84] Creating Layer res3b1_branch2b_relu
I0419 18:12:49.593506 29296 net.cpp:406] res3b1_branch2b_relu <- res3b1_branch2b
I0419 18:12:49.593510 29296 net.cpp:367] res3b1_branch2b_relu -> res3b1_branch2b (in-place)
I0419 18:12:49.594014 29296 net.cpp:122] Setting up res3b1_branch2b_relu
I0419 18:12:49.594027 29296 net.cpp:129] Top shape: 1 128 28 28 (100352)
I0419 18:12:49.594030 29296 net.cpp:137] Memory required for data: 129454092
I0419 18:12:49.594033 29296 layer_factory.hpp:77] Creating layer res3b1_branch2c
I0419 18:12:49.594044 29296 net.cpp:84] Creating Layer res3b1_branch2c
I0419 18:12:49.594048 29296 net.cpp:406] res3b1_branch2c <- res3b1_branch2b
I0419 18:12:49.594055 29296 net.cpp:380] res3b1_branch2c -> res3b1_branch2c
I0419 18:12:49.595590 29296 net.cpp:122] Setting up res3b1_branch2c
I0419 18:12:49.595605 29296 net.cpp:129] Top shape: 1 512 28 28 (401408)
I0419 18:12:49.595609 29296 net.cpp:137] Memory required for data: 131059724
I0419 18:12:49.595614 29296 layer_factory.hpp:77] Creating layer scale3b1_branch2c
I0419 18:12:49.595621 29296 net.cpp:84] Creating Layer scale3b1_branch2c
I0419 18:12:49.595625 29296 net.cpp:406] scale3b1_branch2c <- res3b1_branch2c
I0419 18:12:49.595633 29296 net.cpp:367] scale3b1_branch2c -> res3b1_branch2c (in-place)
I0419 18:12:49.595680 29296 layer_factory.hpp:77] Creating layer scale3b1_branch2c
I0419 18:12:49.595791 29296 net.cpp:122] Setting up scale3b1_branch2c
I0419 18:12:49.595798 29296 net.cpp:129] Top shape: 1 512 28 28 (401408)
I0419 18:12:49.595801 29296 net.cpp:137] Memory required for data: 132665356
I0419 18:12:49.595808 29296 layer_factory.hpp:77] Creating layer res3b1
I0419 18:12:49.595815 29296 net.cpp:84] Creating Layer res3b1
I0419 18:12:49.595818 29296 net.cpp:406] res3b1 <- res3a_res3a_relu_0_split_1
I0419 18:12:49.595824 29296 net.cpp:406] res3b1 <- res3b1_branch2c
I0419 18:12:49.595827 29296 net.cpp:380] res3b1 -> res3b1
I0419 18:12:49.595852 29296 net.cpp:122] Setting up res3b1
I0419 18:12:49.595860 29296 net.cpp:129] Top shape: 1 512 28 28 (401408)
I0419 18:12:49.595862 29296 net.cpp:137] Memory required for data: 134270988
I0419 18:12:49.595865 29296 layer_factory.hpp:77] Creating layer res3b1_relu
I0419 18:12:49.595871 29296 net.cpp:84] Creating Layer res3b1_relu
I0419 18:12:49.595875 29296 net.cpp:406] res3b1_relu <- res3b1
I0419 18:12:49.595881 29296 net.cpp:367] res3b1_relu -> res3b1 (in-place)
I0419 18:12:49.596125 29296 net.cpp:122] Setting up res3b1_relu
I0419 18:12:49.596135 29296 net.cpp:129] Top shape: 1 512 28 28 (401408)
I0419 18:12:49.596138 29296 net.cpp:137] Memory required for data: 135876620
I0419 18:12:49.596143 29296 layer_factory.hpp:77] Creating layer res3b1_res3b1_relu_0_split
I0419 18:12:49.596148 29296 net.cpp:84] Creating Layer res3b1_res3b1_relu_0_split
I0419 18:12:49.596151 29296 net.cpp:406] res3b1_res3b1_relu_0_split <- res3b1
I0419 18:12:49.596155 29296 net.cpp:380] res3b1_res3b1_relu_0_split -> res3b1_res3b1_relu_0_split_0
I0419 18:12:49.596163 29296 net.cpp:380] res3b1_res3b1_relu_0_split -> res3b1_res3b1_relu_0_split_1
I0419 18:12:49.596204 29296 net.cpp:122] Setting up res3b1_res3b1_relu_0_split
I0419 18:12:49.596211 29296 net.cpp:129] Top shape: 1 512 28 28 (401408)
I0419 18:12:49.596215 29296 net.cpp:129] Top shape: 1 512 28 28 (401408)
I0419 18:12:49.596218 29296 net.cpp:137] Memory required for data: 139087884
I0419 18:12:49.596222 29296 layer_factory.hpp:77] Creating layer res3b2_branch2a
I0419 18:12:49.596231 29296 net.cpp:84] Creating Layer res3b2_branch2a
I0419 18:12:49.596235 29296 net.cpp:406] res3b2_branch2a <- res3b1_res3b1_relu_0_split_0
I0419 18:12:49.596241 29296 net.cpp:380] res3b2_branch2a -> res3b2_branch2a
I0419 18:12:49.597723 29296 net.cpp:122] Setting up res3b2_branch2a
I0419 18:12:49.597754 29296 net.cpp:129] Top shape: 1 128 28 28 (100352)
I0419 18:12:49.597757 29296 net.cpp:137] Memory required for data: 139489292
I0419 18:12:49.597774 29296 layer_factory.hpp:77] Creating layer scale3b2_branch2a
I0419 18:12:49.597781 29296 net.cpp:84] Creating Layer scale3b2_branch2a
I0419 18:12:49.597785 29296 net.cpp:406] scale3b2_branch2a <- res3b2_branch2a
I0419 18:12:49.597792 29296 net.cpp:367] scale3b2_branch2a -> res3b2_branch2a (in-place)
I0419 18:12:49.597839 29296 layer_factory.hpp:77] Creating layer scale3b2_branch2a
I0419 18:12:49.597970 29296 net.cpp:122] Setting up scale3b2_branch2a
I0419 18:12:49.597980 29296 net.cpp:129] Top shape: 1 128 28 28 (100352)
I0419 18:12:49.597983 29296 net.cpp:137] Memory required for data: 139890700
I0419 18:12:49.597990 29296 layer_factory.hpp:77] Creating layer res3b2_branch2a_relu
I0419 18:12:49.597995 29296 net.cpp:84] Creating Layer res3b2_branch2a_relu
I0419 18:12:49.597998 29296 net.cpp:406] res3b2_branch2a_relu <- res3b2_branch2a
I0419 18:12:49.598002 29296 net.cpp:367] res3b2_branch2a_relu -> res3b2_branch2a (in-place)
I0419 18:12:49.598465 29296 net.cpp:122] Setting up res3b2_branch2a_relu
I0419 18:12:49.598477 29296 net.cpp:129] Top shape: 1 128 28 28 (100352)
I0419 18:12:49.598480 29296 net.cpp:137] Memory required for data: 140292108
I0419 18:12:49.598484 29296 layer_factory.hpp:77] Creating layer res3b2_branch2b
I0419 18:12:49.598495 29296 net.cpp:84] Creating Layer res3b2_branch2b
I0419 18:12:49.598498 29296 net.cpp:406] res3b2_branch2b <- res3b2_branch2a
I0419 18:12:49.598503 29296 net.cpp:380] res3b2_branch2b -> res3b2_branch2b
I0419 18:12:49.601124 29296 net.cpp:122] Setting up res3b2_branch2b
I0419 18:12:49.601136 29296 net.cpp:129] Top shape: 1 128 28 28 (100352)
I0419 18:12:49.601140 29296 net.cpp:137] Memory required for data: 140693516
I0419 18:12:49.601145 29296 layer_factory.hpp:77] Creating layer scale3b2_branch2b
I0419 18:12:49.601153 29296 net.cpp:84] Creating Layer scale3b2_branch2b
I0419 18:12:49.601157 29296 net.cpp:406] scale3b2_branch2b <- res3b2_branch2b
I0419 18:12:49.601164 29296 net.cpp:367] scale3b2_branch2b -> res3b2_branch2b (in-place)
I0419 18:12:49.601219 29296 layer_factory.hpp:77] Creating layer scale3b2_branch2b
I0419 18:12:49.601337 29296 net.cpp:122] Setting up scale3b2_branch2b
I0419 18:12:49.601344 29296 net.cpp:129] Top shape: 1 128 28 28 (100352)
I0419 18:12:49.601347 29296 net.cpp:137] Memory required for data: 141094924
I0419 18:12:49.601353 29296 layer_factory.hpp:77] Creating layer res3b2_branch2b_relu
I0419 18:12:49.601359 29296 net.cpp:84] Creating Layer res3b2_branch2b_relu
I0419 18:12:49.601362 29296 net.cpp:406] res3b2_branch2b_relu <- res3b2_branch2b
I0419 18:12:49.601369 29296 net.cpp:367] res3b2_branch2b_relu -> res3b2_branch2b (in-place)
I0419 18:12:49.601649 29296 net.cpp:122] Setting up res3b2_branch2b_relu
I0419 18:12:49.601658 29296 net.cpp:129] Top shape: 1 128 28 28 (100352)
I0419 18:12:49.601662 29296 net.cpp:137] Memory required for data: 141496332
I0419 18:12:49.601666 29296 layer_factory.hpp:77] Creating layer res3b2_branch2c
I0419 18:12:49.601680 29296 net.cpp:84] Creating Layer res3b2_branch2c
I0419 18:12:49.601683 29296 net.cpp:406] res3b2_branch2c <- res3b2_branch2b
I0419 18:12:49.601689 29296 net.cpp:380] res3b2_branch2c -> res3b2_branch2c
I0419 18:12:49.603173 29296 net.cpp:122] Setting up res3b2_branch2c
I0419 18:12:49.603188 29296 net.cpp:129] Top shape: 1 512 28 28 (401408)
I0419 18:12:49.603193 29296 net.cpp:137] Memory required for data: 143101964
I0419 18:12:49.603197 29296 layer_factory.hpp:77] Creating layer scale3b2_branch2c
I0419 18:12:49.603204 29296 net.cpp:84] Creating Layer scale3b2_branch2c
I0419 18:12:49.603209 29296 net.cpp:406] scale3b2_branch2c <- res3b2_branch2c
I0419 18:12:49.603214 29296 net.cpp:367] scale3b2_branch2c -> res3b2_branch2c (in-place)
I0419 18:12:49.603262 29296 layer_factory.hpp:77] Creating layer scale3b2_branch2c
I0419 18:12:49.603379 29296 net.cpp:122] Setting up scale3b2_branch2c
I0419 18:12:49.603389 29296 net.cpp:129] Top shape: 1 512 28 28 (401408)
I0419 18:12:49.603391 29296 net.cpp:137] Memory required for data: 144707596
I0419 18:12:49.603397 29296 layer_factory.hpp:77] Creating layer res3b2
I0419 18:12:49.603404 29296 net.cpp:84] Creating Layer res3b2
I0419 18:12:49.603406 29296 net.cpp:406] res3b2 <- res3b1_res3b1_relu_0_split_1
I0419 18:12:49.603411 29296 net.cpp:406] res3b2 <- res3b2_branch2c
I0419 18:12:49.603415 29296 net.cpp:380] res3b2 -> res3b2
I0419 18:12:49.603441 29296 net.cpp:122] Setting up res3b2
I0419 18:12:49.603447 29296 net.cpp:129] Top shape: 1 512 28 28 (401408)
I0419 18:12:49.603451 29296 net.cpp:137] Memory required for data: 146313228
I0419 18:12:49.603453 29296 layer_factory.hpp:77] Creating layer res3b2_relu
I0419 18:12:49.603459 29296 net.cpp:84] Creating Layer res3b2_relu
I0419 18:12:49.603463 29296 net.cpp:406] res3b2_relu <- res3b2
I0419 18:12:49.603469 29296 net.cpp:367] res3b2_relu -> res3b2 (in-place)
I0419 18:12:49.603974 29296 net.cpp:122] Setting up res3b2_relu
I0419 18:12:49.604001 29296 net.cpp:129] Top shape: 1 512 28 28 (401408)
I0419 18:12:49.604007 29296 net.cpp:137] Memory required for data: 147918860
I0419 18:12:49.604010 29296 layer_factory.hpp:77] Creating layer res3b2_res3b2_relu_0_split
I0419 18:12:49.604017 29296 net.cpp:84] Creating Layer res3b2_res3b2_relu_0_split
I0419 18:12:49.604020 29296 net.cpp:406] res3b2_res3b2_relu_0_split <- res3b2
I0419 18:12:49.604025 29296 net.cpp:380] res3b2_res3b2_relu_0_split -> res3b2_res3b2_relu_0_split_0
I0419 18:12:49.604032 29296 net.cpp:380] res3b2_res3b2_relu_0_split -> res3b2_res3b2_relu_0_split_1
I0419 18:12:49.604081 29296 net.cpp:122] Setting up res3b2_res3b2_relu_0_split
I0419 18:12:49.604096 29296 net.cpp:129] Top shape: 1 512 28 28 (401408)
I0419 18:12:49.604100 29296 net.cpp:129] Top shape: 1 512 28 28 (401408)
I0419 18:12:49.604104 29296 net.cpp:137] Memory required for data: 151130124
I0419 18:12:49.604107 29296 layer_factory.hpp:77] Creating layer res3b3_branch2a
I0419 18:12:49.604117 29296 net.cpp:84] Creating Layer res3b3_branch2a
I0419 18:12:49.604120 29296 net.cpp:406] res3b3_branch2a <- res3b2_res3b2_relu_0_split_0
I0419 18:12:49.604127 29296 net.cpp:380] res3b3_branch2a -> res3b3_branch2a
I0419 18:12:49.606314 29296 net.cpp:122] Setting up res3b3_branch2a
I0419 18:12:49.606348 29296 net.cpp:129] Top shape: 1 128 28 28 (100352)
I0419 18:12:49.606351 29296 net.cpp:137] Memory required for data: 151531532
I0419 18:12:49.606356 29296 layer_factory.hpp:77] Creating layer scale3b3_branch2a
I0419 18:12:49.606366 29296 net.cpp:84] Creating Layer scale3b3_branch2a
I0419 18:12:49.606370 29296 net.cpp:406] scale3b3_branch2a <- res3b3_branch2a
I0419 18:12:49.606379 29296 net.cpp:367] scale3b3_branch2a -> res3b3_branch2a (in-place)
I0419 18:12:49.606426 29296 layer_factory.hpp:77] Creating layer scale3b3_branch2a
I0419 18:12:49.606542 29296 net.cpp:122] Setting up scale3b3_branch2a
I0419 18:12:49.606550 29296 net.cpp:129] Top shape: 1 128 28 28 (100352)
I0419 18:12:49.606554 29296 net.cpp:137] Memory required for data: 151932940
I0419 18:12:49.606559 29296 layer_factory.hpp:77] Creating layer res3b3_branch2a_relu
I0419 18:12:49.606565 29296 net.cpp:84] Creating Layer res3b3_branch2a_relu
I0419 18:12:49.606568 29296 net.cpp:406] res3b3_branch2a_relu <- res3b3_branch2a
I0419 18:12:49.606575 29296 net.cpp:367] res3b3_branch2a_relu -> res3b3_branch2a (in-place)
I0419 18:12:49.607101 29296 net.cpp:122] Setting up res3b3_branch2a_relu
I0419 18:12:49.607113 29296 net.cpp:129] Top shape: 1 128 28 28 (100352)
I0419 18:12:49.607117 29296 net.cpp:137] Memory required for data: 152334348
I0419 18:12:49.607121 29296 layer_factory.hpp:77] Creating layer res3b3_branch2b
I0419 18:12:49.607131 29296 net.cpp:84] Creating Layer res3b3_branch2b
I0419 18:12:49.607136 29296 net.cpp:406] res3b3_branch2b <- res3b3_branch2a
I0419 18:12:49.607141 29296 net.cpp:380] res3b3_branch2b -> res3b3_branch2b
I0419 18:12:49.609570 29296 net.cpp:122] Setting up res3b3_branch2b
I0419 18:12:49.609587 29296 net.cpp:129] Top shape: 1 128 28 28 (100352)
I0419 18:12:49.609591 29296 net.cpp:137] Memory required for data: 152735756
I0419 18:12:49.609612 29296 layer_factory.hpp:77] Creating layer scale3b3_branch2b
I0419 18:12:49.609622 29296 net.cpp:84] Creating Layer scale3b3_branch2b
I0419 18:12:49.609627 29296 net.cpp:406] scale3b3_branch2b <- res3b3_branch2b
I0419 18:12:49.609632 29296 net.cpp:367] scale3b3_branch2b -> res3b3_branch2b (in-place)
I0419 18:12:49.609686 29296 layer_factory.hpp:77] Creating layer scale3b3_branch2b
I0419 18:12:49.609814 29296 net.cpp:122] Setting up scale3b3_branch2b
I0419 18:12:49.609822 29296 net.cpp:129] Top shape: 1 128 28 28 (100352)
I0419 18:12:49.609827 29296 net.cpp:137] Memory required for data: 153137164
I0419 18:12:49.609833 29296 layer_factory.hpp:77] Creating layer res3b3_branch2b_relu
I0419 18:12:49.609838 29296 net.cpp:84] Creating Layer res3b3_branch2b_relu
I0419 18:12:49.609841 29296 net.cpp:406] res3b3_branch2b_relu <- res3b3_branch2b
I0419 18:12:49.609848 29296 net.cpp:367] res3b3_branch2b_relu -> res3b3_branch2b (in-place)
I0419 18:12:49.610131 29296 net.cpp:122] Setting up res3b3_branch2b_relu
I0419 18:12:49.610141 29296 net.cpp:129] Top shape: 1 128 28 28 (100352)
I0419 18:12:49.610143 29296 net.cpp:137] Memory required for data: 153538572
I0419 18:12:49.610147 29296 layer_factory.hpp:77] Creating layer res3b3_branch2c
I0419 18:12:49.610157 29296 net.cpp:84] Creating Layer res3b3_branch2c
I0419 18:12:49.610162 29296 net.cpp:406] res3b3_branch2c <- res3b3_branch2b
I0419 18:12:49.610168 29296 net.cpp:380] res3b3_branch2c -> res3b3_branch2c
I0419 18:12:49.611701 29296 net.cpp:122] Setting up res3b3_branch2c
I0419 18:12:49.611713 29296 net.cpp:129] Top shape: 1 512 28 28 (401408)
I0419 18:12:49.611717 29296 net.cpp:137] Memory required for data: 155144204
I0419 18:12:49.611722 29296 layer_factory.hpp:77] Creating layer scale3b3_branch2c
I0419 18:12:49.611732 29296 net.cpp:84] Creating Layer scale3b3_branch2c
I0419 18:12:49.611735 29296 net.cpp:406] scale3b3_branch2c <- res3b3_branch2c
I0419 18:12:49.611740 29296 net.cpp:367] scale3b3_branch2c -> res3b3_branch2c (in-place)
I0419 18:12:49.611793 29296 layer_factory.hpp:77] Creating layer scale3b3_branch2c
I0419 18:12:49.611909 29296 net.cpp:122] Setting up scale3b3_branch2c
I0419 18:12:49.611917 29296 net.cpp:129] Top shape: 1 512 28 28 (401408)
I0419 18:12:49.611922 29296 net.cpp:137] Memory required for data: 156749836
I0419 18:12:49.611927 29296 layer_factory.hpp:77] Creating layer res3b3
I0419 18:12:49.611934 29296 net.cpp:84] Creating Layer res3b3
I0419 18:12:49.611937 29296 net.cpp:406] res3b3 <- res3b2_res3b2_relu_0_split_1
I0419 18:12:49.611943 29296 net.cpp:406] res3b3 <- res3b3_branch2c
I0419 18:12:49.611946 29296 net.cpp:380] res3b3 -> res3b3
I0419 18:12:49.611973 29296 net.cpp:122] Setting up res3b3
I0419 18:12:49.611979 29296 net.cpp:129] Top shape: 1 512 28 28 (401408)
I0419 18:12:49.611982 29296 net.cpp:137] Memory required for data: 158355468
I0419 18:12:49.611986 29296 layer_factory.hpp:77] Creating layer res3b3_relu
I0419 18:12:49.611991 29296 net.cpp:84] Creating Layer res3b3_relu
I0419 18:12:49.611994 29296 net.cpp:406] res3b3_relu <- res3b3
I0419 18:12:49.612000 29296 net.cpp:367] res3b3_relu -> res3b3 (in-place)
I0419 18:12:49.612465 29296 net.cpp:122] Setting up res3b3_relu
I0419 18:12:49.612478 29296 net.cpp:129] Top shape: 1 512 28 28 (401408)
I0419 18:12:49.612480 29296 net.cpp:137] Memory required for data: 159961100
I0419 18:12:49.612484 29296 layer_factory.hpp:77] Creating layer res3b3_res3b3_relu_0_split
I0419 18:12:49.612493 29296 net.cpp:84] Creating Layer res3b3_res3b3_relu_0_split
I0419 18:12:49.612496 29296 net.cpp:406] res3b3_res3b3_relu_0_split <- res3b3
I0419 18:12:49.612501 29296 net.cpp:380] res3b3_res3b3_relu_0_split -> res3b3_res3b3_relu_0_split_0
I0419 18:12:49.612507 29296 net.cpp:380] res3b3_res3b3_relu_0_split -> res3b3_res3b3_relu_0_split_1
I0419 18:12:49.612553 29296 net.cpp:122] Setting up res3b3_res3b3_relu_0_split
I0419 18:12:49.612560 29296 net.cpp:129] Top shape: 1 512 28 28 (401408)
I0419 18:12:49.612565 29296 net.cpp:129] Top shape: 1 512 28 28 (401408)
I0419 18:12:49.612568 29296 net.cpp:137] Memory required for data: 163172364
I0419 18:12:49.612571 29296 layer_factory.hpp:77] Creating layer res4a_branch1
I0419 18:12:49.612581 29296 net.cpp:84] Creating Layer res4a_branch1
I0419 18:12:49.612589 29296 net.cpp:406] res4a_branch1 <- res3b3_res3b3_relu_0_split_0
I0419 18:12:49.612609 29296 net.cpp:380] res4a_branch1 -> res4a_branch1
I0419 18:12:49.615578 29296 net.cpp:122] Setting up res4a_branch1
I0419 18:12:49.615597 29296 net.cpp:129] Top shape: 1 1024 14 14 (200704)
I0419 18:12:49.615600 29296 net.cpp:137] Memory required for data: 163975180
I0419 18:12:49.615607 29296 layer_factory.hpp:77] Creating layer scale4a_branch1
I0419 18:12:49.615624 29296 net.cpp:84] Creating Layer scale4a_branch1
I0419 18:12:49.615629 29296 net.cpp:406] scale4a_branch1 <- res4a_branch1
I0419 18:12:49.615638 29296 net.cpp:367] scale4a_branch1 -> res4a_branch1 (in-place)
I0419 18:12:49.615694 29296 layer_factory.hpp:77] Creating layer scale4a_branch1
I0419 18:12:49.615828 29296 net.cpp:122] Setting up scale4a_branch1
I0419 18:12:49.615836 29296 net.cpp:129] Top shape: 1 1024 14 14 (200704)
I0419 18:12:49.615839 29296 net.cpp:137] Memory required for data: 164777996
I0419 18:12:49.615846 29296 layer_factory.hpp:77] Creating layer res4a_branch2a
I0419 18:12:49.615855 29296 net.cpp:84] Creating Layer res4a_branch2a
I0419 18:12:49.615859 29296 net.cpp:406] res4a_branch2a <- res3b3_res3b3_relu_0_split_1
I0419 18:12:49.615866 29296 net.cpp:380] res4a_branch2a -> res4a_branch2a
I0419 18:12:49.617487 29296 net.cpp:122] Setting up res4a_branch2a
I0419 18:12:49.617501 29296 net.cpp:129] Top shape: 1 256 14 14 (50176)
I0419 18:12:49.617503 29296 net.cpp:137] Memory required for data: 164978700
I0419 18:12:49.617508 29296 layer_factory.hpp:77] Creating layer scale4a_branch2a
I0419 18:12:49.617516 29296 net.cpp:84] Creating Layer scale4a_branch2a
I0419 18:12:49.617519 29296 net.cpp:406] scale4a_branch2a <- res4a_branch2a
I0419 18:12:49.617527 29296 net.cpp:367] scale4a_branch2a -> res4a_branch2a (in-place)
I0419 18:12:49.617578 29296 layer_factory.hpp:77] Creating layer scale4a_branch2a
I0419 18:12:49.617715 29296 net.cpp:122] Setting up scale4a_branch2a
I0419 18:12:49.617724 29296 net.cpp:129] Top shape: 1 256 14 14 (50176)
I0419 18:12:49.617727 29296 net.cpp:137] Memory required for data: 165179404
I0419 18:12:49.617733 29296 layer_factory.hpp:77] Creating layer res4a_branch2a_relu
I0419 18:12:49.617738 29296 net.cpp:84] Creating Layer res4a_branch2a_relu
I0419 18:12:49.617743 29296 net.cpp:406] res4a_branch2a_relu <- res4a_branch2a
I0419 18:12:49.617748 29296 net.cpp:367] res4a_branch2a_relu -> res4a_branch2a (in-place)
I0419 18:12:49.618002 29296 net.cpp:122] Setting up res4a_branch2a_relu
I0419 18:12:49.618014 29296 net.cpp:129] Top shape: 1 256 14 14 (50176)
I0419 18:12:49.618017 29296 net.cpp:137] Memory required for data: 165380108
I0419 18:12:49.618021 29296 layer_factory.hpp:77] Creating layer res4a_branch2b
I0419 18:12:49.618031 29296 net.cpp:84] Creating Layer res4a_branch2b
I0419 18:12:49.618034 29296 net.cpp:406] res4a_branch2b <- res4a_branch2a
I0419 18:12:49.618041 29296 net.cpp:380] res4a_branch2b -> res4a_branch2b
I0419 18:12:49.621304 29296 net.cpp:122] Setting up res4a_branch2b
I0419 18:12:49.621320 29296 net.cpp:129] Top shape: 1 256 14 14 (50176)
I0419 18:12:49.621323 29296 net.cpp:137] Memory required for data: 165580812
I0419 18:12:49.621328 29296 layer_factory.hpp:77] Creating layer scale4a_branch2b
I0419 18:12:49.621336 29296 net.cpp:84] Creating Layer scale4a_branch2b
I0419 18:12:49.621340 29296 net.cpp:406] scale4a_branch2b <- res4a_branch2b
I0419 18:12:49.621345 29296 net.cpp:367] scale4a_branch2b -> res4a_branch2b (in-place)
I0419 18:12:49.621398 29296 layer_factory.hpp:77] Creating layer scale4a_branch2b
I0419 18:12:49.621521 29296 net.cpp:122] Setting up scale4a_branch2b
I0419 18:12:49.621531 29296 net.cpp:129] Top shape: 1 256 14 14 (50176)
I0419 18:12:49.621533 29296 net.cpp:137] Memory required for data: 165781516
I0419 18:12:49.621539 29296 layer_factory.hpp:77] Creating layer res4a_branch2b_relu
I0419 18:12:49.621546 29296 net.cpp:84] Creating Layer res4a_branch2b_relu
I0419 18:12:49.621548 29296 net.cpp:406] res4a_branch2b_relu <- res4a_branch2b
I0419 18:12:49.621553 29296 net.cpp:367] res4a_branch2b_relu -> res4a_branch2b (in-place)
I0419 18:12:49.622071 29296 net.cpp:122] Setting up res4a_branch2b_relu
I0419 18:12:49.622082 29296 net.cpp:129] Top shape: 1 256 14 14 (50176)
I0419 18:12:49.622087 29296 net.cpp:137] Memory required for data: 165982220
I0419 18:12:49.622089 29296 layer_factory.hpp:77] Creating layer res4a_branch2c
I0419 18:12:49.622100 29296 net.cpp:84] Creating Layer res4a_branch2c
I0419 18:12:49.622104 29296 net.cpp:406] res4a_branch2c <- res4a_branch2b
I0419 18:12:49.622112 29296 net.cpp:380] res4a_branch2c -> res4a_branch2c
I0419 18:12:49.624658 29296 net.cpp:122] Setting up res4a_branch2c
I0419 18:12:49.624689 29296 net.cpp:129] Top shape: 1 1024 14 14 (200704)
I0419 18:12:49.624693 29296 net.cpp:137] Memory required for data: 166785036
I0419 18:12:49.624698 29296 layer_factory.hpp:77] Creating layer scale4a_branch2c
I0419 18:12:49.624706 29296 net.cpp:84] Creating Layer scale4a_branch2c
I0419 18:12:49.624711 29296 net.cpp:406] scale4a_branch2c <- res4a_branch2c
I0419 18:12:49.624717 29296 net.cpp:367] scale4a_branch2c -> res4a_branch2c (in-place)
I0419 18:12:49.624766 29296 layer_factory.hpp:77] Creating layer scale4a_branch2c
I0419 18:12:49.624903 29296 net.cpp:122] Setting up scale4a_branch2c
I0419 18:12:49.624927 29296 net.cpp:129] Top shape: 1 1024 14 14 (200704)
I0419 18:12:49.624929 29296 net.cpp:137] Memory required for data: 167587852
I0419 18:12:49.624934 29296 layer_factory.hpp:77] Creating layer res4a
I0419 18:12:49.624943 29296 net.cpp:84] Creating Layer res4a
I0419 18:12:49.624946 29296 net.cpp:406] res4a <- res4a_branch1
I0419 18:12:49.624950 29296 net.cpp:406] res4a <- res4a_branch2c
I0419 18:12:49.624954 29296 net.cpp:380] res4a -> res4a
I0419 18:12:49.624981 29296 net.cpp:122] Setting up res4a
I0419 18:12:49.624989 29296 net.cpp:129] Top shape: 1 1024 14 14 (200704)
I0419 18:12:49.624991 29296 net.cpp:137] Memory required for data: 168390668
I0419 18:12:49.624994 29296 layer_factory.hpp:77] Creating layer res4a_relu
I0419 18:12:49.625000 29296 net.cpp:84] Creating Layer res4a_relu
I0419 18:12:49.625003 29296 net.cpp:406] res4a_relu <- res4a
I0419 18:12:49.625010 29296 net.cpp:367] res4a_relu -> res4a (in-place)
I0419 18:12:49.625478 29296 net.cpp:122] Setting up res4a_relu
I0419 18:12:49.625490 29296 net.cpp:129] Top shape: 1 1024 14 14 (200704)
I0419 18:12:49.625494 29296 net.cpp:137] Memory required for data: 169193484
I0419 18:12:49.625497 29296 layer_factory.hpp:77] Creating layer res4a_res4a_relu_0_split
I0419 18:12:49.625504 29296 net.cpp:84] Creating Layer res4a_res4a_relu_0_split
I0419 18:12:49.625507 29296 net.cpp:406] res4a_res4a_relu_0_split <- res4a
I0419 18:12:49.625514 29296 net.cpp:380] res4a_res4a_relu_0_split -> res4a_res4a_relu_0_split_0
I0419 18:12:49.625520 29296 net.cpp:380] res4a_res4a_relu_0_split -> res4a_res4a_relu_0_split_1
I0419 18:12:49.625567 29296 net.cpp:122] Setting up res4a_res4a_relu_0_split
I0419 18:12:49.625576 29296 net.cpp:129] Top shape: 1 1024 14 14 (200704)
I0419 18:12:49.625581 29296 net.cpp:129] Top shape: 1 1024 14 14 (200704)
I0419 18:12:49.625591 29296 net.cpp:137] Memory required for data: 170799116
I0419 18:12:49.625609 29296 layer_factory.hpp:77] Creating layer res4b1_branch2a
I0419 18:12:49.625618 29296 net.cpp:84] Creating Layer res4b1_branch2a
I0419 18:12:49.625622 29296 net.cpp:406] res4b1_branch2a <- res4a_res4a_relu_0_split_0
I0419 18:12:49.625630 29296 net.cpp:380] res4b1_branch2a -> res4b1_branch2a
I0419 18:12:49.628204 29296 net.cpp:122] Setting up res4b1_branch2a
I0419 18:12:49.628218 29296 net.cpp:129] Top shape: 1 256 14 14 (50176)
I0419 18:12:49.628222 29296 net.cpp:137] Memory required for data: 170999820
I0419 18:12:49.628228 29296 layer_factory.hpp:77] Creating layer scale4b1_branch2a
I0419 18:12:49.628235 29296 net.cpp:84] Creating Layer scale4b1_branch2a
I0419 18:12:49.628239 29296 net.cpp:406] scale4b1_branch2a <- res4b1_branch2a
I0419 18:12:49.628247 29296 net.cpp:367] scale4b1_branch2a -> res4b1_branch2a (in-place)
I0419 18:12:49.628299 29296 layer_factory.hpp:77] Creating layer scale4b1_branch2a
I0419 18:12:49.628432 29296 net.cpp:122] Setting up scale4b1_branch2a
I0419 18:12:49.628440 29296 net.cpp:129] Top shape: 1 256 14 14 (50176)
I0419 18:12:49.628443 29296 net.cpp:137] Memory required for data: 171200524
I0419 18:12:49.628449 29296 layer_factory.hpp:77] Creating layer res4b1_branch2a_relu
I0419 18:12:49.628455 29296 net.cpp:84] Creating Layer res4b1_branch2a_relu
I0419 18:12:49.628458 29296 net.cpp:406] res4b1_branch2a_relu <- res4b1_branch2a
I0419 18:12:49.628463 29296 net.cpp:367] res4b1_branch2a_relu -> res4b1_branch2a (in-place)
I0419 18:12:49.628749 29296 net.cpp:122] Setting up res4b1_branch2a_relu
I0419 18:12:49.628760 29296 net.cpp:129] Top shape: 1 256 14 14 (50176)
I0419 18:12:49.628763 29296 net.cpp:137] Memory required for data: 171401228
I0419 18:12:49.628767 29296 layer_factory.hpp:77] Creating layer res4b1_branch2b
I0419 18:12:49.628778 29296 net.cpp:84] Creating Layer res4b1_branch2b
I0419 18:12:49.628783 29296 net.cpp:406] res4b1_branch2b <- res4b1_branch2a
I0419 18:12:49.628788 29296 net.cpp:380] res4b1_branch2b -> res4b1_branch2b
I0419 18:12:49.632083 29296 net.cpp:122] Setting up res4b1_branch2b
I0419 18:12:49.632097 29296 net.cpp:129] Top shape: 1 256 14 14 (50176)
I0419 18:12:49.632100 29296 net.cpp:137] Memory required for data: 171601932
I0419 18:12:49.632107 29296 layer_factory.hpp:77] Creating layer scale4b1_branch2b
I0419 18:12:49.632115 29296 net.cpp:84] Creating Layer scale4b1_branch2b
I0419 18:12:49.632119 29296 net.cpp:406] scale4b1_branch2b <- res4b1_branch2b
I0419 18:12:49.632127 29296 net.cpp:367] scale4b1_branch2b -> res4b1_branch2b (in-place)
I0419 18:12:49.632179 29296 layer_factory.hpp:77] Creating layer scale4b1_branch2b
I0419 18:12:49.632302 29296 net.cpp:122] Setting up scale4b1_branch2b
I0419 18:12:49.632310 29296 net.cpp:129] Top shape: 1 256 14 14 (50176)
I0419 18:12:49.632313 29296 net.cpp:137] Memory required for data: 171802636
I0419 18:12:49.632319 29296 layer_factory.hpp:77] Creating layer res4b1_branch2b_relu
I0419 18:12:49.632328 29296 net.cpp:84] Creating Layer res4b1_branch2b_relu
I0419 18:12:49.632330 29296 net.cpp:406] res4b1_branch2b_relu <- res4b1_branch2b
I0419 18:12:49.632334 29296 net.cpp:367] res4b1_branch2b_relu -> res4b1_branch2b (in-place)
I0419 18:12:49.632815 29296 net.cpp:122] Setting up res4b1_branch2b_relu
I0419 18:12:49.632828 29296 net.cpp:129] Top shape: 1 256 14 14 (50176)
I0419 18:12:49.632833 29296 net.cpp:137] Memory required for data: 172003340
I0419 18:12:49.632836 29296 layer_factory.hpp:77] Creating layer res4b1_branch2c
I0419 18:12:49.632861 29296 net.cpp:84] Creating Layer res4b1_branch2c
I0419 18:12:49.632867 29296 net.cpp:406] res4b1_branch2c <- res4b1_branch2b
I0419 18:12:49.632874 29296 net.cpp:380] res4b1_branch2c -> res4b1_branch2c
I0419 18:12:49.635221 29296 net.cpp:122] Setting up res4b1_branch2c
I0419 18:12:49.635234 29296 net.cpp:129] Top shape: 1 1024 14 14 (200704)
I0419 18:12:49.635238 29296 net.cpp:137] Memory required for data: 172806156
I0419 18:12:49.635244 29296 layer_factory.hpp:77] Creating layer scale4b1_branch2c
I0419 18:12:49.635251 29296 net.cpp:84] Creating Layer scale4b1_branch2c
I0419 18:12:49.635257 29296 net.cpp:406] scale4b1_branch2c <- res4b1_branch2c
I0419 18:12:49.635262 29296 net.cpp:367] scale4b1_branch2c -> res4b1_branch2c (in-place)
I0419 18:12:49.635313 29296 layer_factory.hpp:77] Creating layer scale4b1_branch2c
I0419 18:12:49.635442 29296 net.cpp:122] Setting up scale4b1_branch2c
I0419 18:12:49.635450 29296 net.cpp:129] Top shape: 1 1024 14 14 (200704)
I0419 18:12:49.635453 29296 net.cpp:137] Memory required for data: 173608972
I0419 18:12:49.635459 29296 layer_factory.hpp:77] Creating layer res4b1
I0419 18:12:49.635465 29296 net.cpp:84] Creating Layer res4b1
I0419 18:12:49.635468 29296 net.cpp:406] res4b1 <- res4a_res4a_relu_0_split_1
I0419 18:12:49.635473 29296 net.cpp:406] res4b1 <- res4b1_branch2c
I0419 18:12:49.635480 29296 net.cpp:380] res4b1 -> res4b1
I0419 18:12:49.635505 29296 net.cpp:122] Setting up res4b1
I0419 18:12:49.635512 29296 net.cpp:129] Top shape: 1 1024 14 14 (200704)
I0419 18:12:49.635515 29296 net.cpp:137] Memory required for data: 174411788
I0419 18:12:49.635519 29296 layer_factory.hpp:77] Creating layer res4b1_relu
I0419 18:12:49.635526 29296 net.cpp:84] Creating Layer res4b1_relu
I0419 18:12:49.635530 29296 net.cpp:406] res4b1_relu <- res4b1
I0419 18:12:49.635535 29296 net.cpp:367] res4b1_relu -> res4b1 (in-place)
I0419 18:12:49.635804 29296 net.cpp:122] Setting up res4b1_relu
I0419 18:12:49.635814 29296 net.cpp:129] Top shape: 1 1024 14 14 (200704)
I0419 18:12:49.635818 29296 net.cpp:137] Memory required for data: 175214604
I0419 18:12:49.635821 29296 layer_factory.hpp:77] Creating layer res4b1_res4b1_relu_0_split
I0419 18:12:49.635828 29296 net.cpp:84] Creating Layer res4b1_res4b1_relu_0_split
I0419 18:12:49.635830 29296 net.cpp:406] res4b1_res4b1_relu_0_split <- res4b1
I0419 18:12:49.635838 29296 net.cpp:380] res4b1_res4b1_relu_0_split -> res4b1_res4b1_relu_0_split_0
I0419 18:12:49.635844 29296 net.cpp:380] res4b1_res4b1_relu_0_split -> res4b1_res4b1_relu_0_split_1
I0419 18:12:49.635893 29296 net.cpp:122] Setting up res4b1_res4b1_relu_0_split
I0419 18:12:49.635900 29296 net.cpp:129] Top shape: 1 1024 14 14 (200704)
I0419 18:12:49.635905 29296 net.cpp:129] Top shape: 1 1024 14 14 (200704)
I0419 18:12:49.635907 29296 net.cpp:137] Memory required for data: 176820236
I0419 18:12:49.635910 29296 layer_factory.hpp:77] Creating layer res4b2_branch2a
I0419 18:12:49.635921 29296 net.cpp:84] Creating Layer res4b2_branch2a
I0419 18:12:49.635924 29296 net.cpp:406] res4b2_branch2a <- res4b1_res4b1_relu_0_split_0
I0419 18:12:49.635928 29296 net.cpp:380] res4b2_branch2a -> res4b2_branch2a
I0419 18:12:49.638243 29296 net.cpp:122] Setting up res4b2_branch2a
I0419 18:12:49.638259 29296 net.cpp:129] Top shape: 1 256 14 14 (50176)
I0419 18:12:49.638263 29296 net.cpp:137] Memory required for data: 177020940
I0419 18:12:49.638268 29296 layer_factory.hpp:77] Creating layer scale4b2_branch2a
I0419 18:12:49.638276 29296 net.cpp:84] Creating Layer scale4b2_branch2a
I0419 18:12:49.638279 29296 net.cpp:406] scale4b2_branch2a <- res4b2_branch2a
I0419 18:12:49.638286 29296 net.cpp:367] scale4b2_branch2a -> res4b2_branch2a (in-place)
I0419 18:12:49.638337 29296 layer_factory.hpp:77] Creating layer scale4b2_branch2a
I0419 18:12:49.638464 29296 net.cpp:122] Setting up scale4b2_branch2a
I0419 18:12:49.638473 29296 net.cpp:129] Top shape: 1 256 14 14 (50176)
I0419 18:12:49.638475 29296 net.cpp:137] Memory required for data: 177221644
I0419 18:12:49.638481 29296 layer_factory.hpp:77] Creating layer res4b2_branch2a_relu
I0419 18:12:49.638489 29296 net.cpp:84] Creating Layer res4b2_branch2a_relu
I0419 18:12:49.638492 29296 net.cpp:406] res4b2_branch2a_relu <- res4b2_branch2a
I0419 18:12:49.638496 29296 net.cpp:367] res4b2_branch2a_relu -> res4b2_branch2a (in-place)
I0419 18:12:49.638975 29296 net.cpp:122] Setting up res4b2_branch2a_relu
I0419 18:12:49.638988 29296 net.cpp:129] Top shape: 1 256 14 14 (50176)
I0419 18:12:49.638991 29296 net.cpp:137] Memory required for data: 177422348
I0419 18:12:49.638995 29296 layer_factory.hpp:77] Creating layer res4b2_branch2b
I0419 18:12:49.639005 29296 net.cpp:84] Creating Layer res4b2_branch2b
I0419 18:12:49.639009 29296 net.cpp:406] res4b2_branch2b <- res4b2_branch2a
I0419 18:12:49.639017 29296 net.cpp:380] res4b2_branch2b -> res4b2_branch2b
I0419 18:12:49.642289 29296 net.cpp:122] Setting up res4b2_branch2b
I0419 18:12:49.642303 29296 net.cpp:129] Top shape: 1 256 14 14 (50176)
I0419 18:12:49.642307 29296 net.cpp:137] Memory required for data: 177623052
I0419 18:12:49.642313 29296 layer_factory.hpp:77] Creating layer scale4b2_branch2b
I0419 18:12:49.642323 29296 net.cpp:84] Creating Layer scale4b2_branch2b
I0419 18:12:49.642326 29296 net.cpp:406] scale4b2_branch2b <- res4b2_branch2b
I0419 18:12:49.642331 29296 net.cpp:367] scale4b2_branch2b -> res4b2_branch2b (in-place)
I0419 18:12:49.642388 29296 layer_factory.hpp:77] Creating layer scale4b2_branch2b
I0419 18:12:49.642518 29296 net.cpp:122] Setting up scale4b2_branch2b
I0419 18:12:49.642525 29296 net.cpp:129] Top shape: 1 256 14 14 (50176)
I0419 18:12:49.642529 29296 net.cpp:137] Memory required for data: 177823756
I0419 18:12:49.642534 29296 layer_factory.hpp:77] Creating layer res4b2_branch2b_relu
I0419 18:12:49.642540 29296 net.cpp:84] Creating Layer res4b2_branch2b_relu
I0419 18:12:49.642544 29296 net.cpp:406] res4b2_branch2b_relu <- res4b2_branch2b
I0419 18:12:49.642550 29296 net.cpp:367] res4b2_branch2b_relu -> res4b2_branch2b (in-place)
I0419 18:12:49.643079 29296 net.cpp:122] Setting up res4b2_branch2b_relu
I0419 18:12:49.643093 29296 net.cpp:129] Top shape: 1 256 14 14 (50176)
I0419 18:12:49.643096 29296 net.cpp:137] Memory required for data: 178024460
I0419 18:12:49.643100 29296 layer_factory.hpp:77] Creating layer res4b2_branch2c
I0419 18:12:49.643110 29296 net.cpp:84] Creating Layer res4b2_branch2c
I0419 18:12:49.643115 29296 net.cpp:406] res4b2_branch2c <- res4b2_branch2b
I0419 18:12:49.643121 29296 net.cpp:380] res4b2_branch2c -> res4b2_branch2c
I0419 18:12:49.645476 29296 net.cpp:122] Setting up res4b2_branch2c
I0419 18:12:49.645493 29296 net.cpp:129] Top shape: 1 1024 14 14 (200704)
I0419 18:12:49.645496 29296 net.cpp:137] Memory required for data: 178827276
I0419 18:12:49.645503 29296 layer_factory.hpp:77] Creating layer scale4b2_branch2c
I0419 18:12:49.645509 29296 net.cpp:84] Creating Layer scale4b2_branch2c
I0419 18:12:49.645514 29296 net.cpp:406] scale4b2_branch2c <- res4b2_branch2c
I0419 18:12:49.645520 29296 net.cpp:367] scale4b2_branch2c -> res4b2_branch2c (in-place)
I0419 18:12:49.645568 29296 layer_factory.hpp:77] Creating layer scale4b2_branch2c
I0419 18:12:49.645750 29296 net.cpp:122] Setting up scale4b2_branch2c
I0419 18:12:49.645759 29296 net.cpp:129] Top shape: 1 1024 14 14 (200704)
I0419 18:12:49.645762 29296 net.cpp:137] Memory required for data: 179630092
I0419 18:12:49.645768 29296 layer_factory.hpp:77] Creating layer res4b2
I0419 18:12:49.645777 29296 net.cpp:84] Creating Layer res4b2
I0419 18:12:49.645782 29296 net.cpp:406] res4b2 <- res4b1_res4b1_relu_0_split_1
I0419 18:12:49.645787 29296 net.cpp:406] res4b2 <- res4b2_branch2c
I0419 18:12:49.645792 29296 net.cpp:380] res4b2 -> res4b2
I0419 18:12:49.645823 29296 net.cpp:122] Setting up res4b2
I0419 18:12:49.645830 29296 net.cpp:129] Top shape: 1 1024 14 14 (200704)
I0419 18:12:49.645833 29296 net.cpp:137] Memory required for data: 180432908
I0419 18:12:49.645838 29296 layer_factory.hpp:77] Creating layer res4b2_relu
I0419 18:12:49.645843 29296 net.cpp:84] Creating Layer res4b2_relu
I0419 18:12:49.645848 29296 net.cpp:406] res4b2_relu <- res4b2
I0419 18:12:49.645859 29296 net.cpp:367] res4b2_relu -> res4b2 (in-place)
I0419 18:12:49.646157 29296 net.cpp:122] Setting up res4b2_relu
I0419 18:12:49.646167 29296 net.cpp:129] Top shape: 1 1024 14 14 (200704)
I0419 18:12:49.646169 29296 net.cpp:137] Memory required for data: 181235724
I0419 18:12:49.646173 29296 layer_factory.hpp:77] Creating layer res4b2_res4b2_relu_0_split
I0419 18:12:49.646179 29296 net.cpp:84] Creating Layer res4b2_res4b2_relu_0_split
I0419 18:12:49.646183 29296 net.cpp:406] res4b2_res4b2_relu_0_split <- res4b2
I0419 18:12:49.646189 29296 net.cpp:380] res4b2_res4b2_relu_0_split -> res4b2_res4b2_relu_0_split_0
I0419 18:12:49.646195 29296 net.cpp:380] res4b2_res4b2_relu_0_split -> res4b2_res4b2_relu_0_split_1
I0419 18:12:49.646242 29296 net.cpp:122] Setting up res4b2_res4b2_relu_0_split
I0419 18:12:49.646250 29296 net.cpp:129] Top shape: 1 1024 14 14 (200704)
I0419 18:12:49.646255 29296 net.cpp:129] Top shape: 1 1024 14 14 (200704)
I0419 18:12:49.646257 29296 net.cpp:137] Memory required for data: 182841356
I0419 18:12:49.646260 29296 layer_factory.hpp:77] Creating layer res4b3_branch2a
I0419 18:12:49.646271 29296 net.cpp:84] Creating Layer res4b3_branch2a
I0419 18:12:49.646275 29296 net.cpp:406] res4b3_branch2a <- res4b2_res4b2_relu_0_split_0
I0419 18:12:49.646279 29296 net.cpp:380] res4b3_branch2a -> res4b3_branch2a
I0419 18:12:49.648613 29296 net.cpp:122] Setting up res4b3_branch2a
I0419 18:12:49.648627 29296 net.cpp:129] Top shape: 1 256 14 14 (50176)
I0419 18:12:49.648646 29296 net.cpp:137] Memory required for data: 183042060
I0419 18:12:49.648653 29296 layer_factory.hpp:77] Creating layer scale4b3_branch2a
I0419 18:12:49.648661 29296 net.cpp:84] Creating Layer scale4b3_branch2a
I0419 18:12:49.648665 29296 net.cpp:406] scale4b3_branch2a <- res4b3_branch2a
I0419 18:12:49.648671 29296 net.cpp:367] scale4b3_branch2a -> res4b3_branch2a (in-place)
I0419 18:12:49.648731 29296 layer_factory.hpp:77] Creating layer scale4b3_branch2a
I0419 18:12:49.648867 29296 net.cpp:122] Setting up scale4b3_branch2a
I0419 18:12:49.648875 29296 net.cpp:129] Top shape: 1 256 14 14 (50176)
I0419 18:12:49.648878 29296 net.cpp:137] Memory required for data: 183242764
I0419 18:12:49.648885 29296 layer_factory.hpp:77] Creating layer res4b3_branch2a_relu
I0419 18:12:49.648890 29296 net.cpp:84] Creating Layer res4b3_branch2a_relu
I0419 18:12:49.648895 29296 net.cpp:406] res4b3_branch2a_relu <- res4b3_branch2a
I0419 18:12:49.648901 29296 net.cpp:367] res4b3_branch2a_relu -> res4b3_branch2a (in-place)
I0419 18:12:49.649402 29296 net.cpp:122] Setting up res4b3_branch2a_relu
I0419 18:12:49.649415 29296 net.cpp:129] Top shape: 1 256 14 14 (50176)
I0419 18:12:49.649418 29296 net.cpp:137] Memory required for data: 183443468
I0419 18:12:49.649421 29296 layer_factory.hpp:77] Creating layer res4b3_branch2b
I0419 18:12:49.649432 29296 net.cpp:84] Creating Layer res4b3_branch2b
I0419 18:12:49.649436 29296 net.cpp:406] res4b3_branch2b <- res4b3_branch2a
I0419 18:12:49.649441 29296 net.cpp:380] res4b3_branch2b -> res4b3_branch2b
I0419 18:12:49.653034 29296 net.cpp:122] Setting up res4b3_branch2b
I0419 18:12:49.653049 29296 net.cpp:129] Top shape: 1 256 14 14 (50176)
I0419 18:12:49.653053 29296 net.cpp:137] Memory required for data: 183644172
I0419 18:12:49.653059 29296 layer_factory.hpp:77] Creating layer scale4b3_branch2b
I0419 18:12:49.653066 29296 net.cpp:84] Creating Layer scale4b3_branch2b
I0419 18:12:49.653070 29296 net.cpp:406] scale4b3_branch2b <- res4b3_branch2b
I0419 18:12:49.653077 29296 net.cpp:367] scale4b3_branch2b -> res4b3_branch2b (in-place)
I0419 18:12:49.653133 29296 layer_factory.hpp:77] Creating layer scale4b3_branch2b
I0419 18:12:49.653262 29296 net.cpp:122] Setting up scale4b3_branch2b
I0419 18:12:49.653270 29296 net.cpp:129] Top shape: 1 256 14 14 (50176)
I0419 18:12:49.653273 29296 net.cpp:137] Memory required for data: 183844876
I0419 18:12:49.653280 29296 layer_factory.hpp:77] Creating layer res4b3_branch2b_relu
I0419 18:12:49.653286 29296 net.cpp:84] Creating Layer res4b3_branch2b_relu
I0419 18:12:49.653290 29296 net.cpp:406] res4b3_branch2b_relu <- res4b3_branch2b
I0419 18:12:49.653295 29296 net.cpp:367] res4b3_branch2b_relu -> res4b3_branch2b (in-place)
I0419 18:12:49.653569 29296 net.cpp:122] Setting up res4b3_branch2b_relu
I0419 18:12:49.653579 29296 net.cpp:129] Top shape: 1 256 14 14 (50176)
I0419 18:12:49.653589 29296 net.cpp:137] Memory required for data: 184045580
I0419 18:12:49.653592 29296 layer_factory.hpp:77] Creating layer res4b3_branch2c
I0419 18:12:49.653602 29296 net.cpp:84] Creating Layer res4b3_branch2c
I0419 18:12:49.653606 29296 net.cpp:406] res4b3_branch2c <- res4b3_branch2b
I0419 18:12:49.653614 29296 net.cpp:380] res4b3_branch2c -> res4b3_branch2c
I0419 18:12:49.655966 29296 net.cpp:122] Setting up res4b3_branch2c
I0419 18:12:49.655979 29296 net.cpp:129] Top shape: 1 1024 14 14 (200704)
I0419 18:12:49.655983 29296 net.cpp:137] Memory required for data: 184848396
I0419 18:12:49.655988 29296 layer_factory.hpp:77] Creating layer scale4b3_branch2c
I0419 18:12:49.655998 29296 net.cpp:84] Creating Layer scale4b3_branch2c
I0419 18:12:49.656002 29296 net.cpp:406] scale4b3_branch2c <- res4b3_branch2c
I0419 18:12:49.656006 29296 net.cpp:367] scale4b3_branch2c -> res4b3_branch2c (in-place)
I0419 18:12:49.656059 29296 layer_factory.hpp:77] Creating layer scale4b3_branch2c
I0419 18:12:49.656198 29296 net.cpp:122] Setting up scale4b3_branch2c
I0419 18:12:49.656206 29296 net.cpp:129] Top shape: 1 1024 14 14 (200704)
I0419 18:12:49.656209 29296 net.cpp:137] Memory required for data: 185651212
I0419 18:12:49.656215 29296 layer_factory.hpp:77] Creating layer res4b3
I0419 18:12:49.656221 29296 net.cpp:84] Creating Layer res4b3
I0419 18:12:49.656225 29296 net.cpp:406] res4b3 <- res4b2_res4b2_relu_0_split_1
I0419 18:12:49.656229 29296 net.cpp:406] res4b3 <- res4b3_branch2c
I0419 18:12:49.656239 29296 net.cpp:380] res4b3 -> res4b3
I0419 18:12:49.656268 29296 net.cpp:122] Setting up res4b3
I0419 18:12:49.656275 29296 net.cpp:129] Top shape: 1 1024 14 14 (200704)
I0419 18:12:49.656280 29296 net.cpp:137] Memory required for data: 186454028
I0419 18:12:49.656282 29296 layer_factory.hpp:77] Creating layer res4b3_relu
I0419 18:12:49.656288 29296 net.cpp:84] Creating Layer res4b3_relu
I0419 18:12:49.656291 29296 net.cpp:406] res4b3_relu <- res4b3
I0419 18:12:49.656296 29296 net.cpp:367] res4b3_relu -> res4b3 (in-place)
I0419 18:12:49.656786 29296 net.cpp:122] Setting up res4b3_relu
I0419 18:12:49.656800 29296 net.cpp:129] Top shape: 1 1024 14 14 (200704)
I0419 18:12:49.656802 29296 net.cpp:137] Memory required for data: 187256844
I0419 18:12:49.656806 29296 layer_factory.hpp:77] Creating layer res4b3_res4b3_relu_0_split
I0419 18:12:49.656814 29296 net.cpp:84] Creating Layer res4b3_res4b3_relu_0_split
I0419 18:12:49.656818 29296 net.cpp:406] res4b3_res4b3_relu_0_split <- res4b3
I0419 18:12:49.656823 29296 net.cpp:380] res4b3_res4b3_relu_0_split -> res4b3_res4b3_relu_0_split_0
I0419 18:12:49.656829 29296 net.cpp:380] res4b3_res4b3_relu_0_split -> res4b3_res4b3_relu_0_split_1
I0419 18:12:49.656880 29296 net.cpp:122] Setting up res4b3_res4b3_relu_0_split
I0419 18:12:49.656888 29296 net.cpp:129] Top shape: 1 1024 14 14 (200704)
I0419 18:12:49.656891 29296 net.cpp:129] Top shape: 1 1024 14 14 (200704)
I0419 18:12:49.656894 29296 net.cpp:137] Memory required for data: 188862476
I0419 18:12:49.656898 29296 layer_factory.hpp:77] Creating layer res4b4_branch2a
I0419 18:12:49.656908 29296 net.cpp:84] Creating Layer res4b4_branch2a
I0419 18:12:49.656911 29296 net.cpp:406] res4b4_branch2a <- res4b3_res4b3_relu_0_split_0
I0419 18:12:49.656916 29296 net.cpp:380] res4b4_branch2a -> res4b4_branch2a
I0419 18:12:49.659273 29296 net.cpp:122] Setting up res4b4_branch2a
I0419 18:12:49.659289 29296 net.cpp:129] Top shape: 1 256 14 14 (50176)
I0419 18:12:49.659293 29296 net.cpp:137] Memory required for data: 189063180
I0419 18:12:49.659298 29296 layer_factory.hpp:77] Creating layer scale4b4_branch2a
I0419 18:12:49.659306 29296 net.cpp:84] Creating Layer scale4b4_branch2a
I0419 18:12:49.659309 29296 net.cpp:406] scale4b4_branch2a <- res4b4_branch2a
I0419 18:12:49.659317 29296 net.cpp:367] scale4b4_branch2a -> res4b4_branch2a (in-place)
I0419 18:12:49.659369 29296 layer_factory.hpp:77] Creating layer scale4b4_branch2a
I0419 18:12:49.659498 29296 net.cpp:122] Setting up scale4b4_branch2a
I0419 18:12:49.659507 29296 net.cpp:129] Top shape: 1 256 14 14 (50176)
I0419 18:12:49.659509 29296 net.cpp:137] Memory required for data: 189263884
I0419 18:12:49.659515 29296 layer_factory.hpp:77] Creating layer res4b4_branch2a_relu
I0419 18:12:49.659523 29296 net.cpp:84] Creating Layer res4b4_branch2a_relu
I0419 18:12:49.659526 29296 net.cpp:406] res4b4_branch2a_relu <- res4b4_branch2a
I0419 18:12:49.659530 29296 net.cpp:367] res4b4_branch2a_relu -> res4b4_branch2a (in-place)
I0419 18:12:49.660023 29296 net.cpp:122] Setting up res4b4_branch2a_relu
I0419 18:12:49.660037 29296 net.cpp:129] Top shape: 1 256 14 14 (50176)
I0419 18:12:49.660042 29296 net.cpp:137] Memory required for data: 189464588
I0419 18:12:49.660044 29296 layer_factory.hpp:77] Creating layer res4b4_branch2b
I0419 18:12:49.660053 29296 net.cpp:84] Creating Layer res4b4_branch2b
I0419 18:12:49.660056 29296 net.cpp:406] res4b4_branch2b <- res4b4_branch2a
I0419 18:12:49.660063 29296 net.cpp:380] res4b4_branch2b -> res4b4_branch2b
I0419 18:12:49.663403 29296 net.cpp:122] Setting up res4b4_branch2b
I0419 18:12:49.663415 29296 net.cpp:129] Top shape: 1 256 14 14 (50176)
I0419 18:12:49.663419 29296 net.cpp:137] Memory required for data: 189665292
I0419 18:12:49.663424 29296 layer_factory.hpp:77] Creating layer scale4b4_branch2b
I0419 18:12:49.663434 29296 net.cpp:84] Creating Layer scale4b4_branch2b
I0419 18:12:49.663439 29296 net.cpp:406] scale4b4_branch2b <- res4b4_branch2b
I0419 18:12:49.663442 29296 net.cpp:367] scale4b4_branch2b -> res4b4_branch2b (in-place)
I0419 18:12:49.663502 29296 layer_factory.hpp:77] Creating layer scale4b4_branch2b
I0419 18:12:49.663661 29296 net.cpp:122] Setting up scale4b4_branch2b
I0419 18:12:49.663671 29296 net.cpp:129] Top shape: 1 256 14 14 (50176)
I0419 18:12:49.663673 29296 net.cpp:137] Memory required for data: 189865996
I0419 18:12:49.663679 29296 layer_factory.hpp:77] Creating layer res4b4_branch2b_relu
I0419 18:12:49.663686 29296 net.cpp:84] Creating Layer res4b4_branch2b_relu
I0419 18:12:49.663689 29296 net.cpp:406] res4b4_branch2b_relu <- res4b4_branch2b
I0419 18:12:49.663697 29296 net.cpp:367] res4b4_branch2b_relu -> res4b4_branch2b (in-place)
I0419 18:12:49.664007 29296 net.cpp:122] Setting up res4b4_branch2b_relu
I0419 18:12:49.664016 29296 net.cpp:129] Top shape: 1 256 14 14 (50176)
I0419 18:12:49.664019 29296 net.cpp:137] Memory required for data: 190066700
I0419 18:12:49.664023 29296 layer_factory.hpp:77] Creating layer res4b4_branch2c
I0419 18:12:49.664033 29296 net.cpp:84] Creating Layer res4b4_branch2c
I0419 18:12:49.664036 29296 net.cpp:406] res4b4_branch2c <- res4b4_branch2b
I0419 18:12:49.664043 29296 net.cpp:380] res4b4_branch2c -> res4b4_branch2c
I0419 18:12:49.666410 29296 net.cpp:122] Setting up res4b4_branch2c
I0419 18:12:49.666424 29296 net.cpp:129] Top shape: 1 1024 14 14 (200704)
I0419 18:12:49.666427 29296 net.cpp:137] Memory required for data: 190869516
I0419 18:12:49.666434 29296 layer_factory.hpp:77] Creating layer scale4b4_branch2c
I0419 18:12:49.666440 29296 net.cpp:84] Creating Layer scale4b4_branch2c
I0419 18:12:49.666445 29296 net.cpp:406] scale4b4_branch2c <- res4b4_branch2c
I0419 18:12:49.666451 29296 net.cpp:367] scale4b4_branch2c -> res4b4_branch2c (in-place)
I0419 18:12:49.666504 29296 layer_factory.hpp:77] Creating layer scale4b4_branch2c
I0419 18:12:49.666677 29296 net.cpp:122] Setting up scale4b4_branch2c
I0419 18:12:49.666687 29296 net.cpp:129] Top shape: 1 1024 14 14 (200704)
I0419 18:12:49.666690 29296 net.cpp:137] Memory required for data: 191672332
I0419 18:12:49.666718 29296 layer_factory.hpp:77] Creating layer res4b4
I0419 18:12:49.666728 29296 net.cpp:84] Creating Layer res4b4
I0419 18:12:49.666731 29296 net.cpp:406] res4b4 <- res4b3_res4b3_relu_0_split_1
I0419 18:12:49.666736 29296 net.cpp:406] res4b4 <- res4b4_branch2c
I0419 18:12:49.666741 29296 net.cpp:380] res4b4 -> res4b4
I0419 18:12:49.666774 29296 net.cpp:122] Setting up res4b4
I0419 18:12:49.666780 29296 net.cpp:129] Top shape: 1 1024 14 14 (200704)
I0419 18:12:49.666785 29296 net.cpp:137] Memory required for data: 192475148
I0419 18:12:49.666787 29296 layer_factory.hpp:77] Creating layer res4b4_relu
I0419 18:12:49.666793 29296 net.cpp:84] Creating Layer res4b4_relu
I0419 18:12:49.666797 29296 net.cpp:406] res4b4_relu <- res4b4
I0419 18:12:49.666802 29296 net.cpp:367] res4b4_relu -> res4b4 (in-place)
I0419 18:12:49.667310 29296 net.cpp:122] Setting up res4b4_relu
I0419 18:12:49.667323 29296 net.cpp:129] Top shape: 1 1024 14 14 (200704)
I0419 18:12:49.667327 29296 net.cpp:137] Memory required for data: 193277964
I0419 18:12:49.667331 29296 layer_factory.hpp:77] Creating layer res4b4_res4b4_relu_0_split
I0419 18:12:49.667337 29296 net.cpp:84] Creating Layer res4b4_res4b4_relu_0_split
I0419 18:12:49.667341 29296 net.cpp:406] res4b4_res4b4_relu_0_split <- res4b4
I0419 18:12:49.667346 29296 net.cpp:380] res4b4_res4b4_relu_0_split -> res4b4_res4b4_relu_0_split_0
I0419 18:12:49.667352 29296 net.cpp:380] res4b4_res4b4_relu_0_split -> res4b4_res4b4_relu_0_split_1
I0419 18:12:49.667409 29296 net.cpp:122] Setting up res4b4_res4b4_relu_0_split
I0419 18:12:49.667417 29296 net.cpp:129] Top shape: 1 1024 14 14 (200704)
I0419 18:12:49.667420 29296 net.cpp:129] Top shape: 1 1024 14 14 (200704)
I0419 18:12:49.667423 29296 net.cpp:137] Memory required for data: 194883596
I0419 18:12:49.667426 29296 layer_factory.hpp:77] Creating layer res4b5_branch2a
I0419 18:12:49.667436 29296 net.cpp:84] Creating Layer res4b5_branch2a
I0419 18:12:49.667440 29296 net.cpp:406] res4b5_branch2a <- res4b4_res4b4_relu_0_split_0
I0419 18:12:49.667448 29296 net.cpp:380] res4b5_branch2a -> res4b5_branch2a
I0419 18:12:49.669847 29296 net.cpp:122] Setting up res4b5_branch2a
I0419 18:12:49.669876 29296 net.cpp:129] Top shape: 1 256 14 14 (50176)
I0419 18:12:49.669880 29296 net.cpp:137] Memory required for data: 195084300
I0419 18:12:49.669886 29296 layer_factory.hpp:77] Creating layer scale4b5_branch2a
I0419 18:12:49.669894 29296 net.cpp:84] Creating Layer scale4b5_branch2a
I0419 18:12:49.669898 29296 net.cpp:406] scale4b5_branch2a <- res4b5_branch2a
I0419 18:12:49.669919 29296 net.cpp:367] scale4b5_branch2a -> res4b5_branch2a (in-place)
I0419 18:12:49.669976 29296 layer_factory.hpp:77] Creating layer scale4b5_branch2a
I0419 18:12:49.670112 29296 net.cpp:122] Setting up scale4b5_branch2a
I0419 18:12:49.670120 29296 net.cpp:129] Top shape: 1 256 14 14 (50176)
I0419 18:12:49.670123 29296 net.cpp:137] Memory required for data: 195285004
I0419 18:12:49.670128 29296 layer_factory.hpp:77] Creating layer res4b5_branch2a_relu
I0419 18:12:49.670135 29296 net.cpp:84] Creating Layer res4b5_branch2a_relu
I0419 18:12:49.670138 29296 net.cpp:406] res4b5_branch2a_relu <- res4b5_branch2a
I0419 18:12:49.670145 29296 net.cpp:367] res4b5_branch2a_relu -> res4b5_branch2a (in-place)
I0419 18:12:49.670413 29296 net.cpp:122] Setting up res4b5_branch2a_relu
I0419 18:12:49.670423 29296 net.cpp:129] Top shape: 1 256 14 14 (50176)
I0419 18:12:49.670426 29296 net.cpp:137] Memory required for data: 195485708
I0419 18:12:49.670430 29296 layer_factory.hpp:77] Creating layer res4b5_branch2b
I0419 18:12:49.670442 29296 net.cpp:84] Creating Layer res4b5_branch2b
I0419 18:12:49.670446 29296 net.cpp:406] res4b5_branch2b <- res4b5_branch2a
I0419 18:12:49.670451 29296 net.cpp:380] res4b5_branch2b -> res4b5_branch2b
I0419 18:12:49.673784 29296 net.cpp:122] Setting up res4b5_branch2b
I0419 18:12:49.673815 29296 net.cpp:129] Top shape: 1 256 14 14 (50176)
I0419 18:12:49.673820 29296 net.cpp:137] Memory required for data: 195686412
I0419 18:12:49.673825 29296 layer_factory.hpp:77] Creating layer scale4b5_branch2b
I0419 18:12:49.673833 29296 net.cpp:84] Creating Layer scale4b5_branch2b
I0419 18:12:49.673837 29296 net.cpp:406] scale4b5_branch2b <- res4b5_branch2b
I0419 18:12:49.673844 29296 net.cpp:367] scale4b5_branch2b -> res4b5_branch2b (in-place)
I0419 18:12:49.673919 29296 layer_factory.hpp:77] Creating layer scale4b5_branch2b
I0419 18:12:49.674070 29296 net.cpp:122] Setting up scale4b5_branch2b
I0419 18:12:49.674077 29296 net.cpp:129] Top shape: 1 256 14 14 (50176)
I0419 18:12:49.674080 29296 net.cpp:137] Memory required for data: 195887116
I0419 18:12:49.674087 29296 layer_factory.hpp:77] Creating layer res4b5_branch2b_relu
I0419 18:12:49.674098 29296 net.cpp:84] Creating Layer res4b5_branch2b_relu
I0419 18:12:49.674103 29296 net.cpp:406] res4b5_branch2b_relu <- res4b5_branch2b
I0419 18:12:49.674106 29296 net.cpp:367] res4b5_branch2b_relu -> res4b5_branch2b (in-place)
I0419 18:12:49.674613 29296 net.cpp:122] Setting up res4b5_branch2b_relu
I0419 18:12:49.674626 29296 net.cpp:129] Top shape: 1 256 14 14 (50176)
I0419 18:12:49.674630 29296 net.cpp:137] Memory required for data: 196087820
I0419 18:12:49.674634 29296 layer_factory.hpp:77] Creating layer res4b5_branch2c
I0419 18:12:49.674645 29296 net.cpp:84] Creating Layer res4b5_branch2c
I0419 18:12:49.674649 29296 net.cpp:406] res4b5_branch2c <- res4b5_branch2b
I0419 18:12:49.674656 29296 net.cpp:380] res4b5_branch2c -> res4b5_branch2c
I0419 18:12:49.677057 29296 net.cpp:122] Setting up res4b5_branch2c
I0419 18:12:49.677072 29296 net.cpp:129] Top shape: 1 1024 14 14 (200704)
I0419 18:12:49.677074 29296 net.cpp:137] Memory required for data: 196890636
I0419 18:12:49.677080 29296 layer_factory.hpp:77] Creating layer scale4b5_branch2c
I0419 18:12:49.677094 29296 net.cpp:84] Creating Layer scale4b5_branch2c
I0419 18:12:49.677098 29296 net.cpp:406] scale4b5_branch2c <- res4b5_branch2c
I0419 18:12:49.677104 29296 net.cpp:367] scale4b5_branch2c -> res4b5_branch2c (in-place)
I0419 18:12:49.677156 29296 layer_factory.hpp:77] Creating layer scale4b5_branch2c
I0419 18:12:49.677302 29296 net.cpp:122] Setting up scale4b5_branch2c
I0419 18:12:49.677311 29296 net.cpp:129] Top shape: 1 1024 14 14 (200704)
I0419 18:12:49.677314 29296 net.cpp:137] Memory required for data: 197693452
I0419 18:12:49.677320 29296 layer_factory.hpp:77] Creating layer res4b5
I0419 18:12:49.677326 29296 net.cpp:84] Creating Layer res4b5
I0419 18:12:49.677330 29296 net.cpp:406] res4b5 <- res4b4_res4b4_relu_0_split_1
I0419 18:12:49.677333 29296 net.cpp:406] res4b5 <- res4b5_branch2c
I0419 18:12:49.677340 29296 net.cpp:380] res4b5 -> res4b5
I0419 18:12:49.677368 29296 net.cpp:122] Setting up res4b5
I0419 18:12:49.677378 29296 net.cpp:129] Top shape: 1 1024 14 14 (200704)
I0419 18:12:49.677381 29296 net.cpp:137] Memory required for data: 198496268
I0419 18:12:49.677384 29296 layer_factory.hpp:77] Creating layer res4b5_relu
I0419 18:12:49.677390 29296 net.cpp:84] Creating Layer res4b5_relu
I0419 18:12:49.677393 29296 net.cpp:406] res4b5_relu <- res4b5
I0419 18:12:49.677398 29296 net.cpp:367] res4b5_relu -> res4b5 (in-place)
I0419 18:12:49.677898 29296 net.cpp:122] Setting up res4b5_relu
I0419 18:12:49.677911 29296 net.cpp:129] Top shape: 1 1024 14 14 (200704)
I0419 18:12:49.677914 29296 net.cpp:137] Memory required for data: 199299084
I0419 18:12:49.677918 29296 layer_factory.hpp:77] Creating layer res4b5_res4b5_relu_0_split
I0419 18:12:49.677927 29296 net.cpp:84] Creating Layer res4b5_res4b5_relu_0_split
I0419 18:12:49.677930 29296 net.cpp:406] res4b5_res4b5_relu_0_split <- res4b5
I0419 18:12:49.677935 29296 net.cpp:380] res4b5_res4b5_relu_0_split -> res4b5_res4b5_relu_0_split_0
I0419 18:12:49.677942 29296 net.cpp:380] res4b5_res4b5_relu_0_split -> res4b5_res4b5_relu_0_split_1
I0419 18:12:49.677995 29296 net.cpp:122] Setting up res4b5_res4b5_relu_0_split
I0419 18:12:49.678000 29296 net.cpp:129] Top shape: 1 1024 14 14 (200704)
I0419 18:12:49.678004 29296 net.cpp:129] Top shape: 1 1024 14 14 (200704)
I0419 18:12:49.678007 29296 net.cpp:137] Memory required for data: 200904716
I0419 18:12:49.678011 29296 layer_factory.hpp:77] Creating layer res4b6_branch2a
I0419 18:12:49.678022 29296 net.cpp:84] Creating Layer res4b6_branch2a
I0419 18:12:49.678026 29296 net.cpp:406] res4b6_branch2a <- res4b5_res4b5_relu_0_split_0
I0419 18:12:49.678031 29296 net.cpp:380] res4b6_branch2a -> res4b6_branch2a
I0419 18:12:49.680675 29296 net.cpp:122] Setting up res4b6_branch2a
I0419 18:12:49.680690 29296 net.cpp:129] Top shape: 1 256 14 14 (50176)
I0419 18:12:49.680693 29296 net.cpp:137] Memory required for data: 201105420
I0419 18:12:49.680698 29296 layer_factory.hpp:77] Creating layer scale4b6_branch2a
I0419 18:12:49.680708 29296 net.cpp:84] Creating Layer scale4b6_branch2a
I0419 18:12:49.680712 29296 net.cpp:406] scale4b6_branch2a <- res4b6_branch2a
I0419 18:12:49.680719 29296 net.cpp:367] scale4b6_branch2a -> res4b6_branch2a (in-place)
I0419 18:12:49.680773 29296 layer_factory.hpp:77] Creating layer scale4b6_branch2a
I0419 18:12:49.680910 29296 net.cpp:122] Setting up scale4b6_branch2a
I0419 18:12:49.680918 29296 net.cpp:129] Top shape: 1 256 14 14 (50176)
I0419 18:12:49.680922 29296 net.cpp:137] Memory required for data: 201306124
I0419 18:12:49.680927 29296 layer_factory.hpp:77] Creating layer res4b6_branch2a_relu
I0419 18:12:49.680935 29296 net.cpp:84] Creating Layer res4b6_branch2a_relu
I0419 18:12:49.680938 29296 net.cpp:406] res4b6_branch2a_relu <- res4b6_branch2a
I0419 18:12:49.680943 29296 net.cpp:367] res4b6_branch2a_relu -> res4b6_branch2a (in-place)
I0419 18:12:49.681218 29296 net.cpp:122] Setting up res4b6_branch2a_relu
I0419 18:12:49.681228 29296 net.cpp:129] Top shape: 1 256 14 14 (50176)
I0419 18:12:49.681231 29296 net.cpp:137] Memory required for data: 201506828
I0419 18:12:49.681236 29296 layer_factory.hpp:77] Creating layer res4b6_branch2b
I0419 18:12:49.681246 29296 net.cpp:84] Creating Layer res4b6_branch2b
I0419 18:12:49.681249 29296 net.cpp:406] res4b6_branch2b <- res4b6_branch2a
I0419 18:12:49.681257 29296 net.cpp:380] res4b6_branch2b -> res4b6_branch2b
I0419 18:12:49.684602 29296 net.cpp:122] Setting up res4b6_branch2b
I0419 18:12:49.684614 29296 net.cpp:129] Top shape: 1 256 14 14 (50176)
I0419 18:12:49.684634 29296 net.cpp:137] Memory required for data: 201707532
I0419 18:12:49.684640 29296 layer_factory.hpp:77] Creating layer scale4b6_branch2b
I0419 18:12:49.684649 29296 net.cpp:84] Creating Layer scale4b6_branch2b
I0419 18:12:49.684653 29296 net.cpp:406] scale4b6_branch2b <- res4b6_branch2b
I0419 18:12:49.684659 29296 net.cpp:367] scale4b6_branch2b -> res4b6_branch2b (in-place)
I0419 18:12:49.684723 29296 layer_factory.hpp:77] Creating layer scale4b6_branch2b
I0419 18:12:49.684881 29296 net.cpp:122] Setting up scale4b6_branch2b
I0419 18:12:49.684890 29296 net.cpp:129] Top shape: 1 256 14 14 (50176)
I0419 18:12:49.684893 29296 net.cpp:137] Memory required for data: 201908236
I0419 18:12:49.684900 29296 layer_factory.hpp:77] Creating layer res4b6_branch2b_relu
I0419 18:12:49.684906 29296 net.cpp:84] Creating Layer res4b6_branch2b_relu
I0419 18:12:49.684909 29296 net.cpp:406] res4b6_branch2b_relu <- res4b6_branch2b
I0419 18:12:49.684916 29296 net.cpp:367] res4b6_branch2b_relu -> res4b6_branch2b (in-place)
I0419 18:12:49.685567 29296 net.cpp:122] Setting up res4b6_branch2b_relu
I0419 18:12:49.685606 29296 net.cpp:129] Top shape: 1 256 14 14 (50176)
I0419 18:12:49.685611 29296 net.cpp:137] Memory required for data: 202108940
I0419 18:12:49.685616 29296 layer_factory.hpp:77] Creating layer res4b6_branch2c
I0419 18:12:49.685624 29296 net.cpp:84] Creating Layer res4b6_branch2c
I0419 18:12:49.685631 29296 net.cpp:406] res4b6_branch2c <- res4b6_branch2b
I0419 18:12:49.685636 29296 net.cpp:380] res4b6_branch2c -> res4b6_branch2c
I0419 18:12:49.688076 29296 net.cpp:122] Setting up res4b6_branch2c
I0419 18:12:49.688089 29296 net.cpp:129] Top shape: 1 1024 14 14 (200704)
I0419 18:12:49.688093 29296 net.cpp:137] Memory required for data: 202911756
I0419 18:12:49.688098 29296 layer_factory.hpp:77] Creating layer scale4b6_branch2c
I0419 18:12:49.688108 29296 net.cpp:84] Creating Layer scale4b6_branch2c
I0419 18:12:49.688112 29296 net.cpp:406] scale4b6_branch2c <- res4b6_branch2c
I0419 18:12:49.688117 29296 net.cpp:367] scale4b6_branch2c -> res4b6_branch2c (in-place)
I0419 18:12:49.688172 29296 layer_factory.hpp:77] Creating layer scale4b6_branch2c
I0419 18:12:49.688326 29296 net.cpp:122] Setting up scale4b6_branch2c
I0419 18:12:49.688334 29296 net.cpp:129] Top shape: 1 1024 14 14 (200704)
I0419 18:12:49.688338 29296 net.cpp:137] Memory required for data: 203714572
I0419 18:12:49.688344 29296 layer_factory.hpp:77] Creating layer res4b6
I0419 18:12:49.688349 29296 net.cpp:84] Creating Layer res4b6
I0419 18:12:49.688354 29296 net.cpp:406] res4b6 <- res4b5_res4b5_relu_0_split_1
I0419 18:12:49.688360 29296 net.cpp:406] res4b6 <- res4b6_branch2c
I0419 18:12:49.688365 29296 net.cpp:380] res4b6 -> res4b6
I0419 18:12:49.688396 29296 net.cpp:122] Setting up res4b6
I0419 18:12:49.688403 29296 net.cpp:129] Top shape: 1 1024 14 14 (200704)
I0419 18:12:49.688406 29296 net.cpp:137] Memory required for data: 204517388
I0419 18:12:49.688410 29296 layer_factory.hpp:77] Creating layer res4b6_relu
I0419 18:12:49.688416 29296 net.cpp:84] Creating Layer res4b6_relu
I0419 18:12:49.688418 29296 net.cpp:406] res4b6_relu <- res4b6
I0419 18:12:49.688422 29296 net.cpp:367] res4b6_relu -> res4b6 (in-place)
I0419 18:12:49.688731 29296 net.cpp:122] Setting up res4b6_relu
I0419 18:12:49.688741 29296 net.cpp:129] Top shape: 1 1024 14 14 (200704)
I0419 18:12:49.688745 29296 net.cpp:137] Memory required for data: 205320204
I0419 18:12:49.688750 29296 layer_factory.hpp:77] Creating layer res4b6_res4b6_relu_0_split
I0419 18:12:49.688755 29296 net.cpp:84] Creating Layer res4b6_res4b6_relu_0_split
I0419 18:12:49.688758 29296 net.cpp:406] res4b6_res4b6_relu_0_split <- res4b6
I0419 18:12:49.688763 29296 net.cpp:380] res4b6_res4b6_relu_0_split -> res4b6_res4b6_relu_0_split_0
I0419 18:12:49.688771 29296 net.cpp:380] res4b6_res4b6_relu_0_split -> res4b6_res4b6_relu_0_split_1
I0419 18:12:49.688824 29296 net.cpp:122] Setting up res4b6_res4b6_relu_0_split
I0419 18:12:49.688832 29296 net.cpp:129] Top shape: 1 1024 14 14 (200704)
I0419 18:12:49.688836 29296 net.cpp:129] Top shape: 1 1024 14 14 (200704)
I0419 18:12:49.688839 29296 net.cpp:137] Memory required for data: 206925836
I0419 18:12:49.688843 29296 layer_factory.hpp:77] Creating layer res4b7_branch2a
I0419 18:12:49.688853 29296 net.cpp:84] Creating Layer res4b7_branch2a
I0419 18:12:49.688858 29296 net.cpp:406] res4b7_branch2a <- res4b6_res4b6_relu_0_split_0
I0419 18:12:49.688865 29296 net.cpp:380] res4b7_branch2a -> res4b7_branch2a
I0419 18:12:49.691244 29296 net.cpp:122] Setting up res4b7_branch2a
I0419 18:12:49.691258 29296 net.cpp:129] Top shape: 1 256 14 14 (50176)
I0419 18:12:49.691262 29296 net.cpp:137] Memory required for data: 207126540
I0419 18:12:49.691267 29296 layer_factory.hpp:77] Creating layer scale4b7_branch2a
I0419 18:12:49.691275 29296 net.cpp:84] Creating Layer scale4b7_branch2a
I0419 18:12:49.691279 29296 net.cpp:406] scale4b7_branch2a <- res4b7_branch2a
I0419 18:12:49.691284 29296 net.cpp:367] scale4b7_branch2a -> res4b7_branch2a (in-place)
I0419 18:12:49.691344 29296 layer_factory.hpp:77] Creating layer scale4b7_branch2a
I0419 18:12:49.691488 29296 net.cpp:122] Setting up scale4b7_branch2a
I0419 18:12:49.691495 29296 net.cpp:129] Top shape: 1 256 14 14 (50176)
I0419 18:12:49.691498 29296 net.cpp:137] Memory required for data: 207327244
I0419 18:12:49.691504 29296 layer_factory.hpp:77] Creating layer res4b7_branch2a_relu
I0419 18:12:49.691509 29296 net.cpp:84] Creating Layer res4b7_branch2a_relu
I0419 18:12:49.691514 29296 net.cpp:406] res4b7_branch2a_relu <- res4b7_branch2a
I0419 18:12:49.691519 29296 net.cpp:367] res4b7_branch2a_relu -> res4b7_branch2a (in-place)
I0419 18:12:49.692062 29296 net.cpp:122] Setting up res4b7_branch2a_relu
I0419 18:12:49.692077 29296 net.cpp:129] Top shape: 1 256 14 14 (50176)
I0419 18:12:49.692081 29296 net.cpp:137] Memory required for data: 207527948
I0419 18:12:49.692085 29296 layer_factory.hpp:77] Creating layer res4b7_branch2b
I0419 18:12:49.692095 29296 net.cpp:84] Creating Layer res4b7_branch2b
I0419 18:12:49.692100 29296 net.cpp:406] res4b7_branch2b <- res4b7_branch2a
I0419 18:12:49.692104 29296 net.cpp:380] res4b7_branch2b -> res4b7_branch2b
I0419 18:12:49.695461 29296 net.cpp:122] Setting up res4b7_branch2b
I0419 18:12:49.695473 29296 net.cpp:129] Top shape: 1 256 14 14 (50176)
I0419 18:12:49.695477 29296 net.cpp:137] Memory required for data: 207728652
I0419 18:12:49.695482 29296 layer_factory.hpp:77] Creating layer scale4b7_branch2b
I0419 18:12:49.695492 29296 net.cpp:84] Creating Layer scale4b7_branch2b
I0419 18:12:49.695497 29296 net.cpp:406] scale4b7_branch2b <- res4b7_branch2b
I0419 18:12:49.695502 29296 net.cpp:367] scale4b7_branch2b -> res4b7_branch2b (in-place)
I0419 18:12:49.695564 29296 layer_factory.hpp:77] Creating layer scale4b7_branch2b
I0419 18:12:49.695741 29296 net.cpp:122] Setting up scale4b7_branch2b
I0419 18:12:49.695750 29296 net.cpp:129] Top shape: 1 256 14 14 (50176)
I0419 18:12:49.695753 29296 net.cpp:137] Memory required for data: 207929356
I0419 18:12:49.695760 29296 layer_factory.hpp:77] Creating layer res4b7_branch2b_relu
I0419 18:12:49.695766 29296 net.cpp:84] Creating Layer res4b7_branch2b_relu
I0419 18:12:49.695770 29296 net.cpp:406] res4b7_branch2b_relu <- res4b7_branch2b
I0419 18:12:49.695776 29296 net.cpp:367] res4b7_branch2b_relu -> res4b7_branch2b (in-place)
I0419 18:12:49.696373 29296 net.cpp:122] Setting up res4b7_branch2b_relu
I0419 18:12:49.696386 29296 net.cpp:129] Top shape: 1 256 14 14 (50176)
I0419 18:12:49.696389 29296 net.cpp:137] Memory required for data: 208130060
I0419 18:12:49.696393 29296 layer_factory.hpp:77] Creating layer res4b7_branch2c
I0419 18:12:49.696403 29296 net.cpp:84] Creating Layer res4b7_branch2c
I0419 18:12:49.696406 29296 net.cpp:406] res4b7_branch2c <- res4b7_branch2b
I0419 18:12:49.696411 29296 net.cpp:380] res4b7_branch2c -> res4b7_branch2c
I0419 18:12:49.698884 29296 net.cpp:122] Setting up res4b7_branch2c
I0419 18:12:49.698900 29296 net.cpp:129] Top shape: 1 1024 14 14 (200704)
I0419 18:12:49.698904 29296 net.cpp:137] Memory required for data: 208932876
I0419 18:12:49.698909 29296 layer_factory.hpp:77] Creating layer scale4b7_branch2c
I0419 18:12:49.698916 29296 net.cpp:84] Creating Layer scale4b7_branch2c
I0419 18:12:49.698920 29296 net.cpp:406] scale4b7_branch2c <- res4b7_branch2c
I0419 18:12:49.698927 29296 net.cpp:367] scale4b7_branch2c -> res4b7_branch2c (in-place)
I0419 18:12:49.698982 29296 layer_factory.hpp:77] Creating layer scale4b7_branch2c
I0419 18:12:49.699141 29296 net.cpp:122] Setting up scale4b7_branch2c
I0419 18:12:49.699148 29296 net.cpp:129] Top shape: 1 1024 14 14 (200704)
I0419 18:12:49.699151 29296 net.cpp:137] Memory required for data: 209735692
I0419 18:12:49.699157 29296 layer_factory.hpp:77] Creating layer res4b7
I0419 18:12:49.699165 29296 net.cpp:84] Creating Layer res4b7
I0419 18:12:49.699168 29296 net.cpp:406] res4b7 <- res4b6_res4b6_relu_0_split_1
I0419 18:12:49.699173 29296 net.cpp:406] res4b7 <- res4b7_branch2c
I0419 18:12:49.699177 29296 net.cpp:380] res4b7 -> res4b7
I0419 18:12:49.699210 29296 net.cpp:122] Setting up res4b7
I0419 18:12:49.699218 29296 net.cpp:129] Top shape: 1 1024 14 14 (200704)
I0419 18:12:49.699220 29296 net.cpp:137] Memory required for data: 210538508
I0419 18:12:49.699223 29296 layer_factory.hpp:77] Creating layer res4b7_relu
I0419 18:12:49.699229 29296 net.cpp:84] Creating Layer res4b7_relu
I0419 18:12:49.699232 29296 net.cpp:406] res4b7_relu <- res4b7
I0419 18:12:49.699239 29296 net.cpp:367] res4b7_relu -> res4b7 (in-place)
I0419 18:12:49.699512 29296 net.cpp:122] Setting up res4b7_relu
I0419 18:12:49.699522 29296 net.cpp:129] Top shape: 1 1024 14 14 (200704)
I0419 18:12:49.699524 29296 net.cpp:137] Memory required for data: 211341324
I0419 18:12:49.699528 29296 layer_factory.hpp:77] Creating layer res4b7_res4b7_relu_0_split
I0419 18:12:49.699534 29296 net.cpp:84] Creating Layer res4b7_res4b7_relu_0_split
I0419 18:12:49.699538 29296 net.cpp:406] res4b7_res4b7_relu_0_split <- res4b7
I0419 18:12:49.699544 29296 net.cpp:380] res4b7_res4b7_relu_0_split -> res4b7_res4b7_relu_0_split_0
I0419 18:12:49.699550 29296 net.cpp:380] res4b7_res4b7_relu_0_split -> res4b7_res4b7_relu_0_split_1
I0419 18:12:49.699626 29296 net.cpp:122] Setting up res4b7_res4b7_relu_0_split
I0419 18:12:49.699636 29296 net.cpp:129] Top shape: 1 1024 14 14 (200704)
I0419 18:12:49.699640 29296 net.cpp:129] Top shape: 1 1024 14 14 (200704)
I0419 18:12:49.699643 29296 net.cpp:137] Memory required for data: 212946956
I0419 18:12:49.699647 29296 layer_factory.hpp:77] Creating layer res4b8_branch2a
I0419 18:12:49.699657 29296 net.cpp:84] Creating Layer res4b8_branch2a
I0419 18:12:49.699661 29296 net.cpp:406] res4b8_branch2a <- res4b7_res4b7_relu_0_split_0
I0419 18:12:49.699666 29296 net.cpp:380] res4b8_branch2a -> res4b8_branch2a
I0419 18:12:49.702134 29296 net.cpp:122] Setting up res4b8_branch2a
I0419 18:12:49.702148 29296 net.cpp:129] Top shape: 1 256 14 14 (50176)
I0419 18:12:49.702152 29296 net.cpp:137] Memory required for data: 213147660
I0419 18:12:49.702157 29296 layer_factory.hpp:77] Creating layer scale4b8_branch2a
I0419 18:12:49.702167 29296 net.cpp:84] Creating Layer scale4b8_branch2a
I0419 18:12:49.702170 29296 net.cpp:406] scale4b8_branch2a <- res4b8_branch2a
I0419 18:12:49.702178 29296 net.cpp:367] scale4b8_branch2a -> res4b8_branch2a (in-place)
I0419 18:12:49.702234 29296 layer_factory.hpp:77] Creating layer scale4b8_branch2a
I0419 18:12:49.702379 29296 net.cpp:122] Setting up scale4b8_branch2a
I0419 18:12:49.702388 29296 net.cpp:129] Top shape: 1 256 14 14 (50176)
I0419 18:12:49.702390 29296 net.cpp:137] Memory required for data: 213348364
I0419 18:12:49.702396 29296 layer_factory.hpp:77] Creating layer res4b8_branch2a_relu
I0419 18:12:49.702404 29296 net.cpp:84] Creating Layer res4b8_branch2a_relu
I0419 18:12:49.702407 29296 net.cpp:406] res4b8_branch2a_relu <- res4b8_branch2a
I0419 18:12:49.702412 29296 net.cpp:367] res4b8_branch2a_relu -> res4b8_branch2a (in-place)
I0419 18:12:49.702961 29296 net.cpp:122] Setting up res4b8_branch2a_relu
I0419 18:12:49.702975 29296 net.cpp:129] Top shape: 1 256 14 14 (50176)
I0419 18:12:49.702978 29296 net.cpp:137] Memory required for data: 213549068
I0419 18:12:49.702981 29296 layer_factory.hpp:77] Creating layer res4b8_branch2b
I0419 18:12:49.702991 29296 net.cpp:84] Creating Layer res4b8_branch2b
I0419 18:12:49.702996 29296 net.cpp:406] res4b8_branch2b <- res4b8_branch2a
I0419 18:12:49.703001 29296 net.cpp:380] res4b8_branch2b -> res4b8_branch2b
I0419 18:12:49.706393 29296 net.cpp:122] Setting up res4b8_branch2b
I0419 18:12:49.706406 29296 net.cpp:129] Top shape: 1 256 14 14 (50176)
I0419 18:12:49.706410 29296 net.cpp:137] Memory required for data: 213749772
I0419 18:12:49.706415 29296 layer_factory.hpp:77] Creating layer scale4b8_branch2b
I0419 18:12:49.706423 29296 net.cpp:84] Creating Layer scale4b8_branch2b
I0419 18:12:49.706427 29296 net.cpp:406] scale4b8_branch2b <- res4b8_branch2b
I0419 18:12:49.706435 29296 net.cpp:367] scale4b8_branch2b -> res4b8_branch2b (in-place)
I0419 18:12:49.706497 29296 layer_factory.hpp:77] Creating layer scale4b8_branch2b
I0419 18:12:49.706676 29296 net.cpp:122] Setting up scale4b8_branch2b
I0419 18:12:49.706686 29296 net.cpp:129] Top shape: 1 256 14 14 (50176)
I0419 18:12:49.706689 29296 net.cpp:137] Memory required for data: 213950476
I0419 18:12:49.706696 29296 layer_factory.hpp:77] Creating layer res4b8_branch2b_relu
I0419 18:12:49.706701 29296 net.cpp:84] Creating Layer res4b8_branch2b_relu
I0419 18:12:49.706706 29296 net.cpp:406] res4b8_branch2b_relu <- res4b8_branch2b
I0419 18:12:49.706710 29296 net.cpp:367] res4b8_branch2b_relu -> res4b8_branch2b (in-place)
I0419 18:12:49.707023 29296 net.cpp:122] Setting up res4b8_branch2b_relu
I0419 18:12:49.707034 29296 net.cpp:129] Top shape: 1 256 14 14 (50176)
I0419 18:12:49.707037 29296 net.cpp:137] Memory required for data: 214151180
I0419 18:12:49.707041 29296 layer_factory.hpp:77] Creating layer res4b8_branch2c
I0419 18:12:49.707054 29296 net.cpp:84] Creating Layer res4b8_branch2c
I0419 18:12:49.707058 29296 net.cpp:406] res4b8_branch2c <- res4b8_branch2b
I0419 18:12:49.707063 29296 net.cpp:380] res4b8_branch2c -> res4b8_branch2c
I0419 18:12:49.709709 29296 net.cpp:122] Setting up res4b8_branch2c
I0419 18:12:49.709739 29296 net.cpp:129] Top shape: 1 1024 14 14 (200704)
I0419 18:12:49.709743 29296 net.cpp:137] Memory required for data: 214953996
I0419 18:12:49.709748 29296 layer_factory.hpp:77] Creating layer scale4b8_branch2c
I0419 18:12:49.709758 29296 net.cpp:84] Creating Layer scale4b8_branch2c
I0419 18:12:49.709763 29296 net.cpp:406] scale4b8_branch2c <- res4b8_branch2c
I0419 18:12:49.709767 29296 net.cpp:367] scale4b8_branch2c -> res4b8_branch2c (in-place)
I0419 18:12:49.709830 29296 layer_factory.hpp:77] Creating layer scale4b8_branch2c
I0419 18:12:49.710006 29296 net.cpp:122] Setting up scale4b8_branch2c
I0419 18:12:49.710014 29296 net.cpp:129] Top shape: 1 1024 14 14 (200704)
I0419 18:12:49.710017 29296 net.cpp:137] Memory required for data: 215756812
I0419 18:12:49.710023 29296 layer_factory.hpp:77] Creating layer res4b8
I0419 18:12:49.710029 29296 net.cpp:84] Creating Layer res4b8
I0419 18:12:49.710033 29296 net.cpp:406] res4b8 <- res4b7_res4b7_relu_0_split_1
I0419 18:12:49.710037 29296 net.cpp:406] res4b8 <- res4b8_branch2c
I0419 18:12:49.710043 29296 net.cpp:380] res4b8 -> res4b8
I0419 18:12:49.710075 29296 net.cpp:122] Setting up res4b8
I0419 18:12:49.710083 29296 net.cpp:129] Top shape: 1 1024 14 14 (200704)
I0419 18:12:49.710085 29296 net.cpp:137] Memory required for data: 216559628
I0419 18:12:49.710089 29296 layer_factory.hpp:77] Creating layer res4b8_relu
…
I0419 18:12:49.831274 29296 net.cpp:129] Top shape: 1 1024 14 14 (200704)
I0419 18:12:49.831277 29296 net.cpp:137] Memory required for data: 281989132
I0419 18:12:49.831284 29296 layer_factory.hpp:77] Creating layer res4b19
I0419 18:12:49.831290 29296 net.cpp:84] Creating Layer res4b19
I0419 18:12:49.831293 29296 net.cpp:406] res4b19 <- res4b18_res4b18_relu_0_split_1
I0419 18:12:49.831297 29296 net.cpp:406] res4b19 <- res4b19_branch2c
I0419 18:12:49.831303 29296 net.cpp:380] res4b19 -> res4b19
I0419 18:12:49.831326 29296 net.cpp:122] Setting up res4b19
I0419 18:12:49.831336 29296 net.cpp:129] Top shape: 1 1024 14 14 (200704)
I0419 18:12:49.831339 29296 net.cpp:137] Memory required for data: 282791948
I0419 18:12:49.831342 29296 layer_factory.hpp:77] Creating layer res4b19_relu
I0419 18:12:49.831348 29296 net.cpp:84] Creating Layer res4b19_relu
I0419 18:12:49.831351 29296 net.cpp:406] res4b19_relu <- res4b19
I0419 18:12:49.831357 29296 net.cpp:367] res4b19_relu -> res4b19 (in-place)
I0419 18:12:49.831931 29296 net.cpp:122] Setting up res4b19_relu
I0419 18:12:49.831944 29296 net.cpp:129] Top shape: 1 1024 14 14 (200704)
I0419 18:12:49.831948 29296 net.cpp:137] Memory required for data: 283594764
I0419 18:12:49.831951 29296 layer_factory.hpp:77] Creating layer res4b19_res4b19_relu_0_split
I0419 18:12:49.831959 29296 net.cpp:84] Creating Layer res4b19_res4b19_relu_0_split
I0419 18:12:49.831961 29296 net.cpp:406] res4b19_res4b19_relu_0_split <- res4b19
I0419 18:12:49.831969 29296 net.cpp:380] res4b19_res4b19_relu_0_split -> res4b19_res4b19_relu_0_split_0
I0419 18:12:49.831975 29296 net.cpp:380] res4b19_res4b19_relu_0_split -> res4b19_res4b19_relu_0_split_1
I0419 18:12:49.832017 29296 net.cpp:122] Setting up res4b19_res4b19_relu_0_split
I0419 18:12:49.832023 29296 net.cpp:129] Top shape: 1 1024 14 14 (200704)
I0419 18:12:49.832027 29296 net.cpp:129] Top shape: 1 1024 14 14 (200704)
I0419 18:12:49.832029 29296 net.cpp:137] Memory required for data: 285200396
I0419 18:12:49.832033 29296 layer_factory.hpp:77] Creating layer res4b20_branch2a
I0419 18:12:49.832043 29296 net.cpp:84] Creating Layer res4b20_branch2a
I0419 18:12:49.832047 29296 net.cpp:406] res4b20_branch2a <- res4b19_res4b19_relu_0_split_0
I0419 18:12:49.832053 29296 net.cpp:380] res4b20_branch2a -> res4b20_branch2a
I0419 18:12:49.834538 29296 net.cpp:122] Setting up res4b20_branch2a
I0419 18:12:49.834554 29296 net.cpp:129] Top shape: 1 256 14 14 (50176)
I0419 18:12:49.834558 29296 net.cpp:137] Memory required for data: 285401100
I0419 18:12:49.834563 29296 layer_factory.hpp:77] Creating layer scale4b20_branch2a
I0419 18:12:49.834571 29296 net.cpp:84] Creating Layer scale4b20_branch2a
I0419 18:12:49.834575 29296 net.cpp:406] scale4b20_branch2a <- res4b20_branch2a
I0419 18:12:49.834581 29296 net.cpp:367] scale4b20_branch2a -> res4b20_branch2a (in-place)
I0419 18:12:49.834648 29296 layer_factory.hpp:77] Creating layer scale4b20_branch2a
I0419 18:12:49.834763 29296 net.cpp:122] Setting up scale4b20_branch2a
I0419 18:12:49.834770 29296 net.cpp:129] Top shape: 1 256 14 14 (50176)
I0419 18:12:49.834774 29296 net.cpp:137] Memory required for data: 285601804
I0419 18:12:49.834780 29296 layer_factory.hpp:77] Creating layer res4b20_branch2a_relu
I0419 18:12:49.834789 29296 net.cpp:84] Creating Layer res4b20_branch2a_relu
I0419 18:12:49.834792 29296 net.cpp:406] res4b20_branch2a_relu <- res4b20_branch2a
I0419 18:12:49.834796 29296 net.cpp:367] res4b20_branch2a_relu -> res4b20_branch2a (in-place)
I0419 18:12:49.835124 29296 net.cpp:122] Setting up res4b20_branch2a_relu
I0419 18:12:49.835132 29296 net.cpp:129] Top shape: 1 256 14 14 (50176)
I0419 18:12:49.835136 29296 net.cpp:137] Memory required for data: 285802508
I0419 18:12:49.835139 29296 layer_factory.hpp:77] Creating layer res4b20_branch2b
I0419 18:12:49.835150 29296 net.cpp:84] Creating Layer res4b20_branch2b
I0419 18:12:49.835153 29296 net.cpp:406] res4b20_branch2b <- res4b20_branch2a
I0419 18:12:49.835160 29296 net.cpp:380] res4b20_branch2b -> res4b20_branch2b
I0419 18:12:49.838634 29296 net.cpp:122] Setting up res4b20_branch2b
I0419 18:12:49.838647 29296 net.cpp:129] Top shape: 1 256 14 14 (50176)
I0419 18:12:49.838662 29296 net.cpp:137] Memory required for data: 286003212
I0419 18:12:49.838668 29296 layer_factory.hpp:77] Creating layer scale4b20_branch2b
I0419 18:12:49.838678 29296 net.cpp:84] Creating Layer scale4b20_branch2b
I0419 18:12:49.838683 29296 net.cpp:406] scale4b20_branch2b <- res4b20_branch2b
I0419 18:12:49.838688 29296 net.cpp:367] scale4b20_branch2b -> res4b20_branch2b (in-place)
I0419 18:12:49.838739 29296 layer_factory.hpp:77] Creating layer scale4b20_branch2b
I0419 18:12:49.838850 29296 net.cpp:122] Setting up scale4b20_branch2b
I0419 18:12:49.838858 29296 net.cpp:129] Top shape: 1 256 14 14 (50176)
I0419 18:12:49.838861 29296 net.cpp:137] Memory required for data: 286203916
I0419 18:12:49.838867 29296 layer_factory.hpp:77] Creating layer res4b20_branch2b_relu
I0419 18:12:49.838876 29296 net.cpp:84] Creating Layer res4b20_branch2b_relu
I0419 18:12:49.838879 29296 net.cpp:406] res4b20_branch2b_relu <- res4b20_branch2b
I0419 18:12:49.838883 29296 net.cpp:367] res4b20_branch2b_relu -> res4b20_branch2b (in-place)
I0419 18:12:49.839450 29296 net.cpp:122] Setting up res4b20_branch2b_relu
I0419 18:12:49.839462 29296 net.cpp:129] Top shape: 1 256 14 14 (50176)
I0419 18:12:49.839465 29296 net.cpp:137] Memory required for data: 286404620
I0419 18:12:49.839469 29296 layer_factory.hpp:77] Creating layer res4b20_branch2c
I0419 18:12:49.839479 29296 net.cpp:84] Creating Layer res4b20_branch2c
I0419 18:12:49.839484 29296 net.cpp:406] res4b20_branch2c <- res4b20_branch2b
I0419 18:12:49.839489 29296 net.cpp:380] res4b20_branch2c -> res4b20_branch2c
I0419 18:12:49.842011 29296 net.cpp:122] Setting up res4b20_branch2c
I0419 18:12:49.842027 29296 net.cpp:129] Top shape: 1 1024 14 14 (200704)
I0419 18:12:49.842031 29296 net.cpp:137] Memory required for data: 287207436
I0419 18:12:49.842036 29296 layer_factory.hpp:77] Creating layer scale4b20_branch2c
I0419 18:12:49.842043 29296 net.cpp:84] Creating Layer scale4b20_branch2c
I0419 18:12:49.842047 29296 net.cpp:406] scale4b20_branch2c <- res4b20_branch2c
I0419 18:12:49.842054 29296 net.cpp:367] scale4b20_branch2c -> res4b20_branch2c (in-place)
I0419 18:12:49.842113 29296 layer_factory.hpp:77] Creating layer scale4b20_branch2c
I0419 18:12:49.842245 29296 net.cpp:122] Setting up scale4b20_branch2c
I0419 18:12:49.842253 29296 net.cpp:129] Top shape: 1 1024 14 14 (200704)
I0419 18:12:49.842257 29296 net.cpp:137] Memory required for data: 288010252
I0419 18:12:49.842262 29296 layer_factory.hpp:77] Creating layer res4b20
I0419 18:12:49.842267 29296 net.cpp:84] Creating Layer res4b20
I0419 18:12:49.842272 29296 net.cpp:406] res4b20 <- res4b19_res4b19_relu_0_split_1
I0419 18:12:49.842275 29296 net.cpp:406] res4b20 <- res4b20_branch2c
I0419 18:12:49.842280 29296 net.cpp:380] res4b20 -> res4b20
I0419 18:12:49.842304 29296 net.cpp:122] Setting up res4b20
I0419 18:12:49.842311 29296 net.cpp:129] Top shape: 1 1024 14 14 (200704)
I0419 18:12:49.842314 29296 net.cpp:137] Memory required for data: 288813068
I0419 18:12:49.842319 29296 layer_factory.hpp:77] Creating layer res4b20_relu
I0419 18:12:49.842325 29296 net.cpp:84] Creating Layer res4b20_relu
I0419 18:12:49.842329 29296 net.cpp:406] res4b20_relu <- res4b20
I0419 18:12:49.842334 29296 net.cpp:367] res4b20_relu -> res4b20 (in-place)
I0419 18:12:49.842927 29296 net.cpp:122] Setting up res4b20_relu
I0419 18:12:49.842941 29296 net.cpp:129] Top shape: 1 1024 14 14 (200704)
I0419 18:12:49.842943 29296 net.cpp:137] Memory required for data: 289615884
I0419 18:12:49.842947 29296 layer_factory.hpp:77] Creating layer res4b20_res4b20_relu_0_split
I0419 18:12:49.842954 29296 net.cpp:84] Creating Layer res4b20_res4b20_relu_0_split
I0419 18:12:49.842957 29296 net.cpp:406] res4b20_res4b20_relu_0_split <- res4b20
I0419 18:12:49.842965 29296 net.cpp:380] res4b20_res4b20_relu_0_split -> res4b20_res4b20_relu_0_split_0
I0419 18:12:49.842972 29296 net.cpp:380] res4b20_res4b20_relu_0_split -> res4b20_res4b20_relu_0_split_1
I0419 18:12:49.843013 29296 net.cpp:122] Setting up res4b20_res4b20_relu_0_split
I0419 18:12:49.843020 29296 net.cpp:129] Top shape: 1 1024 14 14 (200704)
I0419 18:12:49.843024 29296 net.cpp:129] Top shape: 1 1024 14 14 (200704)
I0419 18:12:49.843027 29296 net.cpp:137] Memory required for data: 291221516
I0419 18:12:49.843030 29296 layer_factory.hpp:77] Creating layer res4b21_branch2a
I0419 18:12:49.843040 29296 net.cpp:84] Creating Layer res4b21_branch2a
I0419 18:12:49.843044 29296 net.cpp:406] res4b21_branch2a <- res4b20_res4b20_relu_0_split_0
I0419 18:12:49.843050 29296 net.cpp:380] res4b21_branch2a -> res4b21_branch2a
I0419 18:12:49.845546 29296 net.cpp:122] Setting up res4b21_branch2a
I0419 18:12:49.845559 29296 net.cpp:129] Top shape: 1 256 14 14 (50176)
I0419 18:12:49.845563 29296 net.cpp:137] Memory required for data: 291422220
I0419 18:12:49.845568 29296 layer_factory.hpp:77] Creating layer scale4b21_branch2a
I0419 18:12:49.845577 29296 net.cpp:84] Creating Layer scale4b21_branch2a
I0419 18:12:49.845582 29296 net.cpp:406] scale4b21_branch2a <- res4b21_branch2a
I0419 18:12:49.845609 29296 net.cpp:367] scale4b21_branch2a -> res4b21_branch2a (in-place)
I0419 18:12:49.845660 29296 layer_factory.hpp:77] Creating layer scale4b21_branch2a
I0419 18:12:49.845783 29296 net.cpp:122] Setting up scale4b21_branch2a
I0419 18:12:49.845791 29296 net.cpp:129] Top shape: 1 256 14 14 (50176)
I0419 18:12:49.845794 29296 net.cpp:137] Memory required for data: 291622924
I0419 18:12:49.845800 29296 layer_factory.hpp:77] Creating layer res4b21_branch2a_relu
I0419 18:12:49.845806 29296 net.cpp:84] Creating Layer res4b21_branch2a_relu
I0419 18:12:49.845810 29296 net.cpp:406] res4b21_branch2a_relu <- res4b21_branch2a
I0419 18:12:49.845818 29296 net.cpp:367] res4b21_branch2a_relu -> res4b21_branch2a (in-place)
I0419 18:12:49.846139 29296 net.cpp:122] Setting up res4b21_branch2a_relu
I0419 18:12:49.846148 29296 net.cpp:129] Top shape: 1 256 14 14 (50176)
I0419 18:12:49.846151 29296 net.cpp:137] Memory required for data: 291823628
I0419 18:12:49.846155 29296 layer_factory.hpp:77] Creating layer res4b21_branch2b
I0419 18:12:49.846168 29296 net.cpp:84] Creating Layer res4b21_branch2b
I0419 18:12:49.846173 29296 net.cpp:406] res4b21_branch2b <- res4b21_branch2a
I0419 18:12:49.846179 29296 net.cpp:380] res4b21_branch2b -> res4b21_branch2b
I0419 18:12:49.849625 29296 net.cpp:122] Setting up res4b21_branch2b
I0419 18:12:49.849639 29296 net.cpp:129] Top shape: 1 256 14 14 (50176)
I0419 18:12:49.849643 29296 net.cpp:137] Memory required for data: 292024332
I0419 18:12:49.849648 29296 layer_factory.hpp:77] Creating layer scale4b21_branch2b
I0419 18:12:49.849658 29296 net.cpp:84] Creating Layer scale4b21_branch2b
I0419 18:12:49.849663 29296 net.cpp:406] scale4b21_branch2b <- res4b21_branch2b
I0419 18:12:49.849668 29296 net.cpp:367] scale4b21_branch2b -> res4b21_branch2b (in-place)
I0419 18:12:49.849717 29296 layer_factory.hpp:77] Creating layer scale4b21_branch2b
I0419 18:12:49.849829 29296 net.cpp:122] Setting up scale4b21_branch2b
I0419 18:12:49.849838 29296 net.cpp:129] Top shape: 1 256 14 14 (50176)
I0419 18:12:49.849840 29296 net.cpp:137] Memory required for data: 292225036
I0419 18:12:49.849846 29296 layer_factory.hpp:77] Creating layer res4b21_branch2b_relu
I0419 18:12:49.849853 29296 net.cpp:84] Creating Layer res4b21_branch2b_relu
I0419 18:12:49.849869 29296 net.cpp:406] res4b21_branch2b_relu <- res4b21_branch2b
I0419 18:12:49.849876 29296 net.cpp:367] res4b21_branch2b_relu -> res4b21_branch2b (in-place)
I0419 18:12:49.850431 29296 net.cpp:122] Setting up res4b21_branch2b_relu
I0419 18:12:49.850445 29296 net.cpp:129] Top shape: 1 256 14 14 (50176)
I0419 18:12:49.850450 29296 net.cpp:137] Memory required for data: 292425740
I0419 18:12:49.850452 29296 layer_factory.hpp:77] Creating layer res4b21_branch2c
I0419 18:12:49.850461 29296 net.cpp:84] Creating Layer res4b21_branch2c
I0419 18:12:49.850466 29296 net.cpp:406] res4b21_branch2c <- res4b21_branch2b
I0419 18:12:49.850472 29296 net.cpp:380] res4b21_branch2c -> res4b21_branch2c
I0419 18:12:49.853026 29296 net.cpp:122] Setting up res4b21_branch2c
I0419 18:12:49.853040 29296 net.cpp:129] Top shape: 1 1024 14 14 (200704)
I0419 18:12:49.853044 29296 net.cpp:137] Memory required for data: 293228556
I0419 18:12:49.853049 29296 layer_factory.hpp:77] Creating layer scale4b21_branch2c
I0419 18:12:49.853060 29296 net.cpp:84] Creating Layer scale4b21_branch2c
I0419 18:12:49.853063 29296 net.cpp:406] scale4b21_branch2c <- res4b21_branch2c
I0419 18:12:49.853068 29296 net.cpp:367] scale4b21_branch2c -> res4b21_branch2c (in-place)
I0419 18:12:49.853130 29296 layer_factory.hpp:77] Creating layer scale4b21_branch2c
I0419 18:12:49.853276 29296 net.cpp:122] Setting up scale4b21_branch2c
I0419 18:12:49.853284 29296 net.cpp:129] Top shape: 1 1024 14 14 (200704)
I0419 18:12:49.853287 29296 net.cpp:137] Memory required for data: 294031372
I0419 18:12:49.853293 29296 layer_factory.hpp:77] Creating layer res4b21
I0419 18:12:49.853302 29296 net.cpp:84] Creating Layer res4b21
I0419 18:12:49.853305 29296 net.cpp:406] res4b21 <- res4b20_res4b20_relu_0_split_1
I0419 18:12:49.853309 29296 net.cpp:406] res4b21 <- res4b21_branch2c
I0419 18:12:49.853314 29296 net.cpp:380] res4b21 -> res4b21
I0419 18:12:49.853340 29296 net.cpp:122] Setting up res4b21
I0419 18:12:49.853348 29296 net.cpp:129] Top shape: 1 1024 14 14 (200704)
I0419 18:12:49.853350 29296 net.cpp:137] Memory required for data: 294834188
I0419 18:12:49.853353 29296 layer_factory.hpp:77] Creating layer res4b21_relu
I0419 18:12:49.853359 29296 net.cpp:84] Creating Layer res4b21_relu
I0419 18:12:49.853363 29296 net.cpp:406] res4b21_relu <- res4b21
I0419 18:12:49.853368 29296 net.cpp:367] res4b21_relu -> res4b21 (in-place)
I0419 18:12:49.853709 29296 net.cpp:122] Setting up res4b21_relu
I0419 18:12:49.853725 29296 net.cpp:129] Top shape: 1 1024 14 14 (200704)
I0419 18:12:49.853729 29296 net.cpp:137] Memory required for data: 295637004
I0419 18:12:49.853734 29296 layer_factory.hpp:77] Creating layer res4b21_res4b21_relu_0_split
I0419 18:12:49.853739 29296 net.cpp:84] Creating Layer res4b21_res4b21_relu_0_split
I0419 18:12:49.853744 29296 net.cpp:406] res4b21_res4b21_relu_0_split <- res4b21
I0419 18:12:49.853751 29296 net.cpp:380] res4b21_res4b21_relu_0_split -> res4b21_res4b21_relu_0_split_0
I0419 18:12:49.853757 29296 net.cpp:380] res4b21_res4b21_relu_0_split -> res4b21_res4b21_relu_0_split_1
I0419 18:12:49.853801 29296 net.cpp:122] Setting up res4b21_res4b21_relu_0_split
I0419 18:12:49.853811 29296 net.cpp:129] Top shape: 1 1024 14 14 (200704)
I0419 18:12:49.853816 29296 net.cpp:129] Top shape: 1 1024 14 14 (200704)
I0419 18:12:49.853818 29296 net.cpp:137] Memory required for data: 297242636
I0419 18:12:49.853822 29296 layer_factory.hpp:77] Creating layer res4b22_branch2a
I0419 18:12:49.853830 29296 net.cpp:84] Creating Layer res4b22_branch2a
I0419 18:12:49.853833 29296 net.cpp:406] res4b22_branch2a <- res4b21_res4b21_relu_0_split_0
I0419 18:12:49.853840 29296 net.cpp:380] res4b22_branch2a -> res4b22_branch2a
I0419 18:12:49.856638 29296 net.cpp:122] Setting up res4b22_branch2a
I0419 18:12:49.856652 29296 net.cpp:129] Top shape: 1 256 14 14 (50176)
I0419 18:12:49.856672 29296 net.cpp:137] Memory required for data: 297443340
I0419 18:12:49.856678 29296 layer_factory.hpp:77] Creating layer scale4b22_branch2a
I0419 18:12:49.856684 29296 net.cpp:84] Creating Layer scale4b22_branch2a
I0419 18:12:49.856689 29296 net.cpp:406] scale4b22_branch2a <- res4b22_branch2a
I0419 18:12:49.856701 29296 net.cpp:367] scale4b22_branch2a -> res4b22_branch2a (in-place)
I0419 18:12:49.856751 29296 layer_factory.hpp:77] Creating layer scale4b22_branch2a
I0419 18:12:49.856870 29296 net.cpp:122] Setting up scale4b22_branch2a
I0419 18:12:49.856878 29296 net.cpp:129] Top shape: 1 256 14 14 (50176)
I0419 18:12:49.856883 29296 net.cpp:137] Memory required for data: 297644044
I0419 18:12:49.856889 29296 layer_factory.hpp:77] Creating layer res4b22_branch2a_relu
I0419 18:12:49.856894 29296 net.cpp:84] Creating Layer res4b22_branch2a_relu
I0419 18:12:49.856897 29296 net.cpp:406] res4b22_branch2a_relu <- res4b22_branch2a
I0419 18:12:49.856902 29296 net.cpp:367] res4b22_branch2a_relu -> res4b22_branch2a (in-place)
I0419 18:12:49.857471 29296 net.cpp:122] Setting up res4b22_branch2a_relu
I0419 18:12:49.857486 29296 net.cpp:129] Top shape: 1 256 14 14 (50176)
I0419 18:12:49.857488 29296 net.cpp:137] Memory required for data: 297844748
I0419 18:12:49.857492 29296 layer_factory.hpp:77] Creating layer res4b22_branch2b
I0419 18:12:49.857502 29296 net.cpp:84] Creating Layer res4b22_branch2b
I0419 18:12:49.857507 29296 net.cpp:406] res4b22_branch2b <- res4b22_branch2a
I0419 18:12:49.857512 29296 net.cpp:380] res4b22_branch2b -> res4b22_branch2b
I0419 18:12:49.861006 29296 net.cpp:122] Setting up res4b22_branch2b
I0419 18:12:49.861019 29296 net.cpp:129] Top shape: 1 256 14 14 (50176)
I0419 18:12:49.861022 29296 net.cpp:137] Memory required for data: 298045452
I0419 18:12:49.861028 29296 layer_factory.hpp:77] Creating layer scale4b22_branch2b
I0419 18:12:49.861037 29296 net.cpp:84] Creating Layer scale4b22_branch2b
I0419 18:12:49.861042 29296 net.cpp:406] scale4b22_branch2b <- res4b22_branch2b
I0419 18:12:49.861047 29296 net.cpp:367] scale4b22_branch2b -> res4b22_branch2b (in-place)
I0419 18:12:49.861099 29296 layer_factory.hpp:77] Creating layer scale4b22_branch2b
I0419 18:12:49.861209 29296 net.cpp:122] Setting up scale4b22_branch2b
I0419 18:12:49.861217 29296 net.cpp:129] Top shape: 1 256 14 14 (50176)
I0419 18:12:49.861222 29296 net.cpp:137] Memory required for data: 298246156
I0419 18:12:49.861227 29296 layer_factory.hpp:77] Creating layer res4b22_branch2b_relu
I0419 18:12:49.861234 29296 net.cpp:84] Creating Layer res4b22_branch2b_relu
I0419 18:12:49.861238 29296 net.cpp:406] res4b22_branch2b_relu <- res4b22_branch2b
I0419 18:12:49.861243 29296 net.cpp:367] res4b22_branch2b_relu -> res4b22_branch2b (in-place)
I0419 18:12:49.861810 29296 net.cpp:122] Setting up res4b22_branch2b_relu
I0419 18:12:49.861824 29296 net.cpp:129] Top shape: 1 256 14 14 (50176)
I0419 18:12:49.861827 29296 net.cpp:137] Memory required for data: 298446860
I0419 18:12:49.861831 29296 layer_factory.hpp:77] Creating layer res4b22_branch2c
I0419 18:12:49.861845 29296 net.cpp:84] Creating Layer res4b22_branch2c
I0419 18:12:49.861850 29296 net.cpp:406] res4b22_branch2c <- res4b22_branch2b
I0419 18:12:49.861856 29296 net.cpp:380] res4b22_branch2c -> res4b22_branch2c
I0419 18:12:49.864410 29296 net.cpp:122] Setting up res4b22_branch2c
I0419 18:12:49.864424 29296 net.cpp:129] Top shape: 1 1024 14 14 (200704)
I0419 18:12:49.864428 29296 net.cpp:137] Memory required for data: 299249676
I0419 18:12:49.864434 29296 layer_factory.hpp:77] Creating layer scale4b22_branch2c
I0419 18:12:49.864440 29296 net.cpp:84] Creating Layer scale4b22_branch2c
I0419 18:12:49.864444 29296 net.cpp:406] scale4b22_branch2c <- res4b22_branch2c
I0419 18:12:49.864452 29296 net.cpp:367] scale4b22_branch2c -> res4b22_branch2c (in-place)
I0419 18:12:49.864513 29296 layer_factory.hpp:77] Creating layer scale4b22_branch2c
I0419 18:12:49.864662 29296 net.cpp:122] Setting up scale4b22_branch2c
I0419 18:12:49.864671 29296 net.cpp:129] Top shape: 1 1024 14 14 (200704)
I0419 18:12:49.864675 29296 net.cpp:137] Memory required for data: 300052492
I0419 18:12:49.864681 29296 layer_factory.hpp:77] Creating layer res4b22
I0419 18:12:49.864686 29296 net.cpp:84] Creating Layer res4b22
I0419 18:12:49.864691 29296 net.cpp:406] res4b22 <- res4b21_res4b21_relu_0_split_1
I0419 18:12:49.864694 29296 net.cpp:406] res4b22 <- res4b22_branch2c
I0419 18:12:49.864698 29296 net.cpp:380] res4b22 -> res4b22
I0419 18:12:49.864724 29296 net.cpp:122] Setting up res4b22
I0419 18:12:49.864732 29296 net.cpp:129] Top shape: 1 1024 14 14 (200704)
I0419 18:12:49.864734 29296 net.cpp:137] Memory required for data: 300855308
I0419 18:12:49.864738 29296 layer_factory.hpp:77] Creating layer res4b22_relu
I0419 18:12:49.864747 29296 net.cpp:84] Creating Layer res4b22_relu
I0419 18:12:49.864749 29296 net.cpp:406] res4b22_relu <- res4b22
I0419 18:12:49.864754 29296 net.cpp:367] res4b22_relu -> res4b22 (in-place)
I0419 18:12:49.865062 29296 net.cpp:122] Setting up res4b22_relu
I0419 18:12:49.865072 29296 net.cpp:129] Top shape: 1 1024 14 14 (200704)
I0419 18:12:49.865075 29296 net.cpp:137] Memory required for data: 301658124
I0419 18:12:49.865079 29296 layer_factory.hpp:77] Creating layer res4b22_res4b22_relu_0_split
I0419 18:12:49.865087 29296 net.cpp:84] Creating Layer res4b22_res4b22_relu_0_split
I0419 18:12:49.865092 29296 net.cpp:406] res4b22_res4b22_relu_0_split <- res4b22
I0419 18:12:49.865097 29296 net.cpp:380] res4b22_res4b22_relu_0_split -> res4b22_res4b22_relu_0_split_0
I0419 18:12:49.865103 29296 net.cpp:380] res4b22_res4b22_relu_0_split -> res4b22_res4b22_relu_0_split_1
I0419 18:12:49.865146 29296 net.cpp:122] Setting up res4b22_res4b22_relu_0_split
I0419 18:12:49.865154 29296 net.cpp:129] Top shape: 1 1024 14 14 (200704)
I0419 18:12:49.865157 29296 net.cpp:129] Top shape: 1 1024 14 14 (200704)
I0419 18:12:49.865160 29296 net.cpp:137] Memory required for data: 303263756
I0419 18:12:49.865164 29296 layer_factory.hpp:77] Creating layer rpn_conv/3x3
I0419 18:12:49.865175 29296 net.cpp:84] Creating Layer rpn_conv/3x3
I0419 18:12:49.865177 29296 net.cpp:406] rpn_conv/3x3 <- res4b22_res4b22_relu_0_split_0
I0419 18:12:49.865186 29296 net.cpp:380] rpn_conv/3x3 -> rpn/output
I0419 18:12:49.888293 29296 net.cpp:122] Setting up rpn_conv/3x3
I0419 18:12:49.888308 29296 net.cpp:129] Top shape: 1 256 14 14 (50176)
I0419 18:12:49.888311 29296 net.cpp:137] Memory required for data: 303464460
I0419 18:12:49.888320 29296 layer_factory.hpp:77] Creating layer rpn_relu/3x3
I0419 18:12:49.888326 29296 net.cpp:84] Creating Layer rpn_relu/3x3
I0419 18:12:49.888330 29296 net.cpp:406] rpn_relu/3x3 <- rpn/output
I0419 18:12:49.888335 29296 net.cpp:367] rpn_relu/3x3 -> rpn/output (in-place)
I0419 18:12:49.888903 29296 net.cpp:122] Setting up rpn_relu/3x3
I0419 18:12:49.888916 29296 net.cpp:129] Top shape: 1 256 14 14 (50176)
I0419 18:12:49.888919 29296 net.cpp:137] Memory required for data: 303665164
I0419 18:12:49.888923 29296 layer_factory.hpp:77] Creating layer rpn/output_rpn_relu/3x3_0_split
I0419 18:12:49.888929 29296 net.cpp:84] Creating Layer rpn/output_rpn_relu/3x3_0_split
I0419 18:12:49.888933 29296 net.cpp:406] rpn/output_rpn_relu/3x3_0_split <- rpn/output
I0419 18:12:49.888941 29296 net.cpp:380] rpn/output_rpn_relu/3x3_0_split -> rpn/output_rpn_relu/3x3_0_split_0
I0419 18:12:49.888947 29296 net.cpp:380] rpn/output_rpn_relu/3x3_0_split -> rpn/output_rpn_relu/3x3_0_split_1
I0419 18:12:49.888993 29296 net.cpp:122] Setting up rpn/output_rpn_relu/3x3_0_split
I0419 18:12:49.889000 29296 net.cpp:129] Top shape: 1 256 14 14 (50176)
I0419 18:12:49.889004 29296 net.cpp:129] Top shape: 1 256 14 14 (50176)
I0419 18:12:49.889008 29296 net.cpp:137] Memory required for data: 304066572
I0419 18:12:49.889010 29296 layer_factory.hpp:77] Creating layer rpn_cls_score
I0419 18:12:49.889021 29296 net.cpp:84] Creating Layer rpn_cls_score
I0419 18:12:49.889025 29296 net.cpp:406] rpn_cls_score <- rpn/output_rpn_relu/3x3_0_split_0
I0419 18:12:49.889030 29296 net.cpp:380] rpn_cls_score -> rpn_cls_score
I0419 18:12:49.890843 29296 net.cpp:122] Setting up rpn_cls_score
I0419 18:12:49.890861 29296 net.cpp:129] Top shape: 1 18 14 14 (3528)
I0419 18:12:49.890864 29296 net.cpp:137] Memory required for data: 304080684
I0419 18:12:49.890871 29296 layer_factory.hpp:77] Creating layer rpn_bbox_pred
I0419 18:12:49.890882 29296 net.cpp:84] Creating Layer rpn_bbox_pred
I0419 18:12:49.890887 29296 net.cpp:406] rpn_bbox_pred <- rpn/output_rpn_relu/3x3_0_split_1
I0419 18:12:49.890892 29296 net.cpp:380] rpn_bbox_pred -> rpn_bbox_pred
I0419 18:12:49.892946 29296 net.cpp:122] Setting up rpn_bbox_pred
I0419 18:12:49.892961 29296 net.cpp:129] Top shape: 1 36 14 14 (7056)
I0419 18:12:49.892963 29296 net.cpp:137] Memory required for data: 304108908
I0419 18:12:49.892971 29296 layer_factory.hpp:77] Creating layer rpn_cls_score_reshape
I0419 18:12:49.892992 29296 net.cpp:84] Creating Layer rpn_cls_score_reshape
I0419 18:12:49.892997 29296 net.cpp:406] rpn_cls_score_reshape <- rpn_cls_score
I0419 18:12:49.893003 29296 net.cpp:380] rpn_cls_score_reshape -> rpn_cls_score_reshape
I0419 18:12:49.893057 29296 net.cpp:122] Setting up rpn_cls_score_reshape
I0419 18:12:49.893066 29296 net.cpp:129] Top shape: 1 2 126 14 (3528)
I0419 18:12:49.893070 29296 net.cpp:137] Memory required for data: 304123020
I0419 18:12:49.893074 29296 layer_factory.hpp:77] Creating layer rpn_cls_prob
I0419 18:12:49.893080 29296 net.cpp:84] Creating Layer rpn_cls_prob
I0419 18:12:49.893085 29296 net.cpp:406] rpn_cls_prob <- rpn_cls_score_reshape
I0419 18:12:49.893091 29296 net.cpp:380] rpn_cls_prob -> rpn_cls_prob
I0419 18:12:49.893477 29296 net.cpp:122] Setting up rpn_cls_prob
I0419 18:12:49.893488 29296 net.cpp:129] Top shape: 1 2 126 14 (3528)
I0419 18:12:49.893491 29296 net.cpp:137] Memory required for data: 304137132
I0419 18:12:49.893496 29296 layer_factory.hpp:77] Creating layer rpn_cls_prob_reshape
I0419 18:12:49.893504 29296 net.cpp:84] Creating Layer rpn_cls_prob_reshape
I0419 18:12:49.893508 29296 net.cpp:406] rpn_cls_prob_reshape <- rpn_cls_prob
I0419 18:12:49.893513 29296 net.cpp:380] rpn_cls_prob_reshape -> rpn_cls_prob_reshape
I0419 18:12:49.893541 29296 net.cpp:122] Setting up rpn_cls_prob_reshape
I0419 18:12:49.893548 29296 net.cpp:129] Top shape: 1 18 14 14 (3528)
I0419 18:12:49.893551 29296 net.cpp:137] Memory required for data: 304151244
I0419 18:12:49.893554 29296 layer_factory.hpp:77] Creating layer proposal
I0419 18:12:49.900799 29296 net.cpp:84] Creating Layer proposal
I0419 18:12:49.900813 29296 net.cpp:406] proposal <- rpn_cls_prob_reshape
I0419 18:12:49.900820 29296 net.cpp:406] proposal <- rpn_bbox_pred
I0419 18:12:49.900825 29296 net.cpp:406] proposal <- im_info
I0419 18:12:49.900831 29296 net.cpp:380] proposal -> rois
I0419 18:12:49.900838 29296 net.cpp:380] proposal -> scores
I0419 18:12:49.901708 29296 net.cpp:122] Setting up proposal
I0419 18:12:49.901723 29296 net.cpp:129] Top shape: 1 5 (5)
I0419 18:12:49.901728 29296 net.cpp:129] Top shape: 1 1 1 1 (1)
I0419 18:12:49.901731 29296 net.cpp:137] Memory required for data: 304151268
I0419 18:12:49.901736 29296 layer_factory.hpp:77] Creating layer roi_pool5
I0419 18:12:49.901756 29296 net.cpp:84] Creating Layer roi_pool5
I0419 18:12:49.901760 29296 net.cpp:406] roi_pool5 <- res4b22_res4b22_relu_0_split_1
I0419 18:12:49.901767 29296 net.cpp:406] roi_pool5 <- rois
I0419 18:12:49.901772 29296 net.cpp:380] roi_pool5 -> roi_pool5
I0419 18:12:49.901778 29296 roi_pooling_layer.cpp:30] Spatial scale: 0.0625
I0419 18:12:49.901841 29296 net.cpp:122] Setting up roi_pool5
I0419 18:12:49.901849 29296 net.cpp:129] Top shape: 1 1024 14 14 (200704)
I0419 18:12:49.901852 29296 net.cpp:137] Memory required for data: 304954084
I0419 18:12:49.901856 29296 layer_factory.hpp:77] Creating layer roi_pool5_roi_pool5_0_split
I0419 18:12:49.901862 29296 net.cpp:84] Creating Layer roi_pool5_roi_pool5_0_split
I0419 18:12:49.901866 29296 net.cpp:406] roi_pool5_roi_pool5_0_split <- roi_pool5
I0419 18:12:49.901872 29296 net.cpp:380] roi_pool5_roi_pool5_0_split -> roi_pool5_roi_pool5_0_split_0
I0419 18:12:49.901880 29296 net.cpp:380] roi_pool5_roi_pool5_0_split -> roi_pool5_roi_pool5_0_split_1
I0419 18:12:49.901942 29296 net.cpp:122] Setting up roi_pool5_roi_pool5_0_split
I0419 18:12:49.901947 29296 net.cpp:129] Top shape: 1 1024 14 14 (200704)
I0419 18:12:49.901952 29296 net.cpp:129] Top shape: 1 1024 14 14 (200704)
I0419 18:12:49.901954 29296 net.cpp:137] Memory required for data: 306559716
I0419 18:12:49.901958 29296 layer_factory.hpp:77] Creating layer res5a_branch1
I0419 18:12:49.901965 29296 net.cpp:84] Creating Layer res5a_branch1
I0419 18:12:49.901970 29296 net.cpp:406] res5a_branch1 <- roi_pool5_roi_pool5_0_split_0
I0419 18:12:49.901978 29296 net.cpp:380] res5a_branch1 -> res5a_branch1
I0419 18:12:49.908814 29296 net.cpp:122] Setting up res5a_branch1
I0419 18:12:49.908844 29296 net.cpp:129] Top shape: 1 2048 7 7 (100352)
I0419 18:12:49.908849 29296 net.cpp:137] Memory required for data: 306961124
I0419 18:12:49.908854 29296 layer_factory.hpp:77] Creating layer scale5a_branch1
I0419 18:12:49.908864 29296 net.cpp:84] Creating Layer scale5a_branch1
I0419 18:12:49.908867 29296 net.cpp:406] scale5a_branch1 <- res5a_branch1
I0419 18:12:49.908875 29296 net.cpp:367] scale5a_branch1 -> res5a_branch1 (in-place)
I0419 18:12:49.908977 29296 layer_factory.hpp:77] Creating layer scale5a_branch1
I0419 18:12:49.909129 29296 net.cpp:122] Setting up scale5a_branch1
I0419 18:12:49.909137 29296 net.cpp:129] Top shape: 1 2048 7 7 (100352)
I0419 18:12:49.909140 29296 net.cpp:137] Memory required for data: 307362532
I0419 18:12:49.909147 29296 layer_factory.hpp:77] Creating layer res5a_branch2a
I0419 18:12:49.909157 29296 net.cpp:84] Creating Layer res5a_branch2a
I0419 18:12:49.909162 29296 net.cpp:406] res5a_branch2a <- roi_pool5_roi_pool5_0_split_1
I0419 18:12:49.909166 29296 net.cpp:380] res5a_branch2a -> res5a_branch2a
I0419 18:12:49.912252 29296 net.cpp:122] Setting up res5a_branch2a
I0419 18:12:49.912266 29296 net.cpp:129] Top shape: 1 512 7 7 (25088)
I0419 18:12:49.912269 29296 net.cpp:137] Memory required for data: 307462884
I0419 18:12:49.912276 29296 layer_factory.hpp:77] Creating layer scale5a_branch2a
I0419 18:12:49.912282 29296 net.cpp:84] Creating Layer scale5a_branch2a
I0419 18:12:49.912286 29296 net.cpp:406] scale5a_branch2a <- res5a_branch2a
I0419 18:12:49.912294 29296 net.cpp:367] scale5a_branch2a -> res5a_branch2a (in-place)
I0419 18:12:49.912358 29296 layer_factory.hpp:77] Creating layer scale5a_branch2a
I0419 18:12:49.912504 29296 net.cpp:122] Setting up scale5a_branch2a
I0419 18:12:49.912513 29296 net.cpp:129] Top shape: 1 512 7 7 (25088)
I0419 18:12:49.912515 29296 net.cpp:137] Memory required for data: 307563236
I0419 18:12:49.912521 29296 layer_factory.hpp:77] Creating layer res5a_branch2a_relu
I0419 18:12:49.912528 29296 net.cpp:84] Creating Layer res5a_branch2a_relu
I0419 18:12:49.912531 29296 net.cpp:406] res5a_branch2a_relu <- res5a_branch2a
I0419 18:12:49.912535 29296 net.cpp:367] res5a_branch2a_relu -> res5a_branch2a (in-place)
I0419 18:12:49.913098 29296 net.cpp:122] Setting up res5a_branch2a_relu
I0419 18:12:49.913113 29296 net.cpp:129] Top shape: 1 512 7 7 (25088)
I0419 18:12:49.913117 29296 net.cpp:137] Memory required for data: 307663588
I0419 18:12:49.913121 29296 layer_factory.hpp:77] Creating layer res5a_branch2b
I0419 18:12:49.913130 29296 net.cpp:84] Creating Layer res5a_branch2b
I0419 18:12:49.913133 29296 net.cpp:406] res5a_branch2b <- res5a_branch2a
I0419 18:12:49.913144 29296 net.cpp:380] res5a_branch2b -> res5a_branch2b
I0419 18:12:49.920847 29296 net.cpp:122] Setting up res5a_branch2b
I0419 18:12:49.920862 29296 net.cpp:129] Top shape: 1 512 7 7 (25088)
I0419 18:12:49.920881 29296 net.cpp:137] Memory required for data: 307763940
I0419 18:12:49.920888 29296 layer_factory.hpp:77] Creating layer scale5a_branch2b
I0419 18:12:49.920898 29296 net.cpp:84] Creating Layer scale5a_branch2b
I0419 18:12:49.920903 29296 net.cpp:406] scale5a_branch2b <- res5a_branch2b
I0419 18:12:49.920922 29296 net.cpp:367] scale5a_branch2b -> res5a_branch2b (in-place)
I0419 18:12:49.920991 29296 layer_factory.hpp:77] Creating layer scale5a_branch2b
I0419 18:12:49.921139 29296 net.cpp:122] Setting up scale5a_branch2b
I0419 18:12:49.921149 29296 net.cpp:129] Top shape: 1 512 7 7 (25088)
I0419 18:12:49.921151 29296 net.cpp:137] Memory required for data: 307864292
I0419 18:12:49.921156 29296 layer_factory.hpp:77] Creating layer res5a_branch2b_relu
I0419 18:12:49.921164 29296 net.cpp:84] Creating Layer res5a_branch2b_relu
I0419 18:12:49.921169 29296 net.cpp:406] res5a_branch2b_relu <- res5a_branch2b
I0419 18:12:49.921172 29296 net.cpp:367] res5a_branch2b_relu -> res5a_branch2b (in-place)
I0419 18:12:49.921742 29296 net.cpp:122] Setting up res5a_branch2b_relu
I0419 18:12:49.921756 29296 net.cpp:129] Top shape: 1 512 7 7 (25088)
I0419 18:12:49.921761 29296 net.cpp:137] Memory required for data: 307964644
I0419 18:12:49.921764 29296 layer_factory.hpp:77] Creating layer res5a_branch2c
I0419 18:12:49.921775 29296 net.cpp:84] Creating Layer res5a_branch2c
I0419 18:12:49.921779 29296 net.cpp:406] res5a_branch2c <- res5a_branch2b
I0419 18:12:49.921785 29296 net.cpp:380] res5a_branch2c -> res5a_branch2c
I0419 18:12:49.926084 29296 net.cpp:122] Setting up res5a_branch2c
I0419 18:12:49.926100 29296 net.cpp:129] Top shape: 1 2048 7 7 (100352)
I0419 18:12:49.926102 29296 net.cpp:137] Memory required for data: 308366052
I0419 18:12:49.926108 29296 layer_factory.hpp:77] Creating layer scale5a_branch2c
I0419 18:12:49.926115 29296 net.cpp:84] Creating Layer scale5a_branch2c
I0419 18:12:49.926120 29296 net.cpp:406] scale5a_branch2c <- res5a_branch2c
I0419 18:12:49.926126 29296 net.cpp:367] scale5a_branch2c -> res5a_branch2c (in-place)
I0419 18:12:49.926192 29296 layer_factory.hpp:77] Creating layer scale5a_branch2c
I0419 18:12:49.926343 29296 net.cpp:122] Setting up scale5a_branch2c
I0419 18:12:49.926352 29296 net.cpp:129] Top shape: 1 2048 7 7 (100352)
I0419 18:12:49.926354 29296 net.cpp:137] Memory required for data: 308767460
I0419 18:12:49.926360 29296 layer_factory.hpp:77] Creating layer res5a
I0419 18:12:49.926367 29296 net.cpp:84] Creating Layer res5a
I0419 18:12:49.926370 29296 net.cpp:406] res5a <- res5a_branch1
I0419 18:12:49.926375 29296 net.cpp:406] res5a <- res5a_branch2c
I0419 18:12:49.926379 29296 net.cpp:380] res5a -> res5a
I0419 18:12:49.926407 29296 net.cpp:122] Setting up res5a
I0419 18:12:49.926414 29296 net.cpp:129] Top shape: 1 2048 7 7 (100352)
I0419 18:12:49.926417 29296 net.cpp:137] Memory required for data: 309168868
I0419 18:12:49.926420 29296 layer_factory.hpp:77] Creating layer res5a_relu
I0419 18:12:49.926429 29296 net.cpp:84] Creating Layer res5a_relu
I0419 18:12:49.926431 29296 net.cpp:406] res5a_relu <- res5a
I0419 18:12:49.926436 29296 net.cpp:367] res5a_relu -> res5a (in-place)
I0419 18:12:49.926888 29296 net.cpp:122] Setting up res5a_relu
I0419 18:12:49.926899 29296 net.cpp:129] Top shape: 1 2048 7 7 (100352)
I0419 18:12:49.926903 29296 net.cpp:137] Memory required for data: 309570276
I0419 18:12:49.926906 29296 layer_factory.hpp:77] Creating layer res5a_res5a_relu_0_split
I0419 18:12:49.926913 29296 net.cpp:84] Creating Layer res5a_res5a_relu_0_split
I0419 18:12:49.926916 29296 net.cpp:406] res5a_res5a_relu_0_split <- res5a
I0419 18:12:49.926921 29296 net.cpp:380] res5a_res5a_relu_0_split -> res5a_res5a_relu_0_split_0
I0419 18:12:49.926928 29296 net.cpp:380] res5a_res5a_relu_0_split -> res5a_res5a_relu_0_split_1
I0419 18:12:49.926970 29296 net.cpp:122] Setting up res5a_res5a_relu_0_split
I0419 18:12:49.926976 29296 net.cpp:129] Top shape: 1 2048 7 7 (100352)
I0419 18:12:49.926980 29296 net.cpp:129] Top shape: 1 2048 7 7 (100352)
I0419 18:12:49.926983 29296 net.cpp:137] Memory required for data: 310373092
I0419 18:12:49.926986 29296 layer_factory.hpp:77] Creating layer res5b_branch2a
I0419 18:12:49.926995 29296 net.cpp:84] Creating Layer res5b_branch2a
I0419 18:12:49.926998 29296 net.cpp:406] res5b_branch2a <- res5a_res5a_relu_0_split_0
I0419 18:12:49.927003 29296 net.cpp:380] res5b_branch2a -> res5b_branch2a
I0419 18:12:49.931253 29296 net.cpp:122] Setting up res5b_branch2a
I0419 18:12:49.931269 29296 net.cpp:129] Top shape: 1 512 7 7 (25088)
I0419 18:12:49.931273 29296 net.cpp:137] Memory required for data: 310473444
I0419 18:12:49.931279 29296 layer_factory.hpp:77] Creating layer scale5b_branch2a
I0419 18:12:49.931288 29296 net.cpp:84] Creating Layer scale5b_branch2a
I0419 18:12:49.931291 29296 net.cpp:406] scale5b_branch2a <- res5b_branch2a
I0419 18:12:49.931298 29296 net.cpp:367] scale5b_branch2a -> res5b_branch2a (in-place)
I0419 18:12:49.931366 29296 layer_factory.hpp:77] Creating layer scale5b_branch2a
I0419 18:12:49.931505 29296 net.cpp:122] Setting up scale5b_branch2a
I0419 18:12:49.931515 29296 net.cpp:129] Top shape: 1 512 7 7 (25088)
I0419 18:12:49.931519 29296 net.cpp:137] Memory required for data: 310573796
I0419 18:12:49.931524 29296 layer_factory.hpp:77] Creating layer res5b_branch2a_relu
I0419 18:12:49.931530 29296 net.cpp:84] Creating Layer res5b_branch2a_relu
I0419 18:12:49.931535 29296 net.cpp:406] res5b_branch2a_relu <- res5b_branch2a
I0419 18:12:49.931538 29296 net.cpp:367] res5b_branch2a_relu -> res5b_branch2a (in-place)
I0419 18:12:49.932126 29296 net.cpp:122] Setting up res5b_branch2a_relu
I0419 18:12:49.932139 29296 net.cpp:129] Top shape: 1 512 7 7 (25088)
I0419 18:12:49.932142 29296 net.cpp:137] Memory required for data: 310674148
I0419 18:12:49.932147 29296 layer_factory.hpp:77] Creating layer res5b_branch2b
I0419 18:12:49.932162 29296 net.cpp:84] Creating Layer res5b_branch2b
I0419 18:12:49.932165 29296 net.cpp:406] res5b_branch2b <- res5b_branch2a
I0419 18:12:49.932174 29296 net.cpp:380] res5b_branch2b -> res5b_branch2b
I0419 18:12:49.939726 29296 net.cpp:122] Setting up res5b_branch2b
I0419 18:12:49.939741 29296 net.cpp:129] Top shape: 1 512 7 7 (25088)
I0419 18:12:49.939761 29296 net.cpp:137] Memory required for data: 310774500
I0419 18:12:49.939767 29296 layer_factory.hpp:77] Creating layer scale5b_branch2b
I0419 18:12:49.939779 29296 net.cpp:84] Creating Layer scale5b_branch2b
I0419 18:12:49.939782 29296 net.cpp:406] scale5b_branch2b <- res5b_branch2b
I0419 18:12:49.939788 29296 net.cpp:367] scale5b_branch2b -> res5b_branch2b (in-place)
I0419 18:12:49.939859 29296 layer_factory.hpp:77] Creating layer scale5b_branch2b
I0419 18:12:49.940039 29296 net.cpp:122] Setting up scale5b_branch2b
I0419 18:12:49.940047 29296 net.cpp:129] Top shape: 1 512 7 7 (25088)
I0419 18:12:49.940050 29296 net.cpp:137] Memory required for data: 310874852
I0419 18:12:49.940057 29296 layer_factory.hpp:77] Creating layer res5b_branch2b_relu
I0419 18:12:49.940062 29296 net.cpp:84] Creating Layer res5b_branch2b_relu
I0419 18:12:49.940066 29296 net.cpp:406] res5b_branch2b_relu <- res5b_branch2b
I0419 18:12:49.940073 29296 net.cpp:367] res5b_branch2b_relu -> res5b_branch2b (in-place)
I0419 18:12:49.940385 29296 net.cpp:122] Setting up res5b_branch2b_relu
I0419 18:12:49.940395 29296 net.cpp:129] Top shape: 1 512 7 7 (25088)
I0419 18:12:49.940398 29296 net.cpp:137] Memory required for data: 310975204
I0419 18:12:49.940402 29296 layer_factory.hpp:77] Creating layer res5b_branch2c
I0419 18:12:49.940412 29296 net.cpp:84] Creating Layer res5b_branch2c
I0419 18:12:49.940416 29296 net.cpp:406] res5b_branch2c <- res5b_branch2b
I0419 18:12:49.940421 29296 net.cpp:380] res5b_branch2c -> res5b_branch2c
I0419 18:12:49.944748 29296 net.cpp:122] Setting up res5b_branch2c
I0419 18:12:49.944764 29296 net.cpp:129] Top shape: 1 2048 7 7 (100352)
I0419 18:12:49.944768 29296 net.cpp:137] Memory required for data: 311376612
I0419 18:12:49.944773 29296 layer_factory.hpp:77] Creating layer scale5b_branch2c
I0419 18:12:49.944782 29296 net.cpp:84] Creating Layer scale5b_branch2c
I0419 18:12:49.944785 29296 net.cpp:406] scale5b_branch2c <- res5b_branch2c
I0419 18:12:49.944792 29296 net.cpp:367] scale5b_branch2c -> res5b_branch2c (in-place)
I0419 18:12:49.944856 29296 layer_factory.hpp:77] Creating layer scale5b_branch2c
I0419 18:12:49.945003 29296 net.cpp:122] Setting up scale5b_branch2c
I0419 18:12:49.945010 29296 net.cpp:129] Top shape: 1 2048 7 7 (100352)
I0419 18:12:49.945013 29296 net.cpp:137] Memory required for data: 311778020
I0419 18:12:49.945019 29296 layer_factory.hpp:77] Creating layer res5b
I0419 18:12:49.945027 29296 net.cpp:84] Creating Layer res5b
I0419 18:12:49.945031 29296 net.cpp:406] res5b <- res5a_res5a_relu_0_split_1
I0419 18:12:49.945035 29296 net.cpp:406] res5b <- res5b_branch2c
I0419 18:12:49.945040 29296 net.cpp:380] res5b -> res5b
I0419 18:12:49.945067 29296 net.cpp:122] Setting up res5b
I0419 18:12:49.945075 29296 net.cpp:129] Top shape: 1 2048 7 7 (100352)
I0419 18:12:49.945077 29296 net.cpp:137] Memory required for data: 312179428
I0419 18:12:49.945080 29296 layer_factory.hpp:77] Creating layer res5b_relu
I0419 18:12:49.945086 29296 net.cpp:84] Creating Layer res5b_relu
I0419 18:12:49.945089 29296 net.cpp:406] res5b_relu <- res5b
I0419 18:12:49.945096 29296 net.cpp:367] res5b_relu -> res5b (in-place)
I0419 18:12:49.945667 29296 net.cpp:122] Setting up res5b_relu
I0419 18:12:49.945680 29296 net.cpp:129] Top shape: 1 2048 7 7 (100352)
I0419 18:12:49.945683 29296 net.cpp:137] Memory required for data: 312580836
I0419 18:12:49.945688 29296 layer_factory.hpp:77] Creating layer res5b_res5b_relu_0_split
I0419 18:12:49.945694 29296 net.cpp:84] Creating Layer res5b_res5b_relu_0_split
I0419 18:12:49.945698 29296 net.cpp:406] res5b_res5b_relu_0_split <- res5b
I0419 18:12:49.945706 29296 net.cpp:380] res5b_res5b_relu_0_split -> res5b_res5b_relu_0_split_0
I0419 18:12:49.945713 29296 net.cpp:380] res5b_res5b_relu_0_split -> res5b_res5b_relu_0_split_1
I0419 18:12:49.945762 29296 net.cpp:122] Setting up res5b_res5b_relu_0_split
I0419 18:12:49.945771 29296 net.cpp:129] Top shape: 1 2048 7 7 (100352)
I0419 18:12:49.945776 29296 net.cpp:129] Top shape: 1 2048 7 7 (100352)
I0419 18:12:49.945780 29296 net.cpp:137] Memory required for data: 313383652
I0419 18:12:49.945782 29296 layer_factory.hpp:77] Creating layer res5c_branch2a
I0419 18:12:49.945791 29296 net.cpp:84] Creating Layer res5c_branch2a
I0419 18:12:49.945794 29296 net.cpp:406] res5c_branch2a <- res5b_res5b_relu_0_split_0
I0419 18:12:49.945801 29296 net.cpp:380] res5c_branch2a -> res5c_branch2a
I0419 18:12:49.950104 29296 net.cpp:122] Setting up res5c_branch2a
I0419 18:12:49.950119 29296 net.cpp:129] Top shape: 1 512 7 7 (25088)
I0419 18:12:49.950122 29296 net.cpp:137] Memory required for data: 313484004
I0419 18:12:49.950127 29296 layer_factory.hpp:77] Creating layer scale5c_branch2a
I0419 18:12:49.950137 29296 net.cpp:84] Creating Layer scale5c_branch2a
I0419 18:12:49.950141 29296 net.cpp:406] scale5c_branch2a <- res5c_branch2a
I0419 18:12:49.950146 29296 net.cpp:367] scale5c_branch2a -> res5c_branch2a (in-place)
I0419 18:12:49.950212 29296 layer_factory.hpp:77] Creating layer scale5c_branch2a
I0419 18:12:49.950357 29296 net.cpp:122] Setting up scale5c_branch2a
I0419 18:12:49.950366 29296 net.cpp:129] Top shape: 1 512 7 7 (25088)
I0419 18:12:49.950368 29296 net.cpp:137] Memory required for data: 313584356
I0419 18:12:49.950374 29296 layer_factory.hpp:77] Creating layer res5c_branch2a_relu
I0419 18:12:49.950381 29296 net.cpp:84] Creating Layer res5c_branch2a_relu
I0419 18:12:49.950386 29296 net.cpp:406] res5c_branch2a_relu <- res5c_branch2a
I0419 18:12:49.950390 29296 net.cpp:367] res5c_branch2a_relu -> res5c_branch2a (in-place)
I0419 18:12:49.950944 29296 net.cpp:122] Setting up res5c_branch2a_relu
I0419 18:12:49.950958 29296 net.cpp:129] Top shape: 1 512 7 7 (25088)
I0419 18:12:49.950960 29296 net.cpp:137] Memory required for data: 313684708
I0419 18:12:49.950964 29296 layer_factory.hpp:77] Creating layer res5c_branch2b
I0419 18:12:49.950976 29296 net.cpp:84] Creating Layer res5c_branch2b
I0419 18:12:49.950981 29296 net.cpp:406] res5c_branch2b <- res5c_branch2a
I0419 18:12:49.950986 29296 net.cpp:380] res5c_branch2b -> res5c_branch2b
I0419 18:12:49.958451 29296 net.cpp:122] Setting up res5c_branch2b
I0419 18:12:49.958468 29296 net.cpp:129] Top shape: 1 512 7 7 (25088)
I0419 18:12:49.958472 29296 net.cpp:137] Memory required for data: 313785060
I0419 18:12:49.958477 29296 layer_factory.hpp:77] Creating layer scale5c_branch2b
I0419 18:12:49.958485 29296 net.cpp:84] Creating Layer scale5c_branch2b
I0419 18:12:49.958489 29296 net.cpp:406] scale5c_branch2b <- res5c_branch2b
I0419 18:12:49.958497 29296 net.cpp:367] scale5c_branch2b -> res5c_branch2b (in-place)
I0419 18:12:49.958564 29296 layer_factory.hpp:77] Creating layer scale5c_branch2b
I0419 18:12:49.958767 29296 net.cpp:122] Setting up scale5c_branch2b
I0419 18:12:49.958776 29296 net.cpp:129] Top shape: 1 512 7 7 (25088)
I0419 18:12:49.958781 29296 net.cpp:137] Memory required for data: 313885412
I0419 18:12:49.958786 29296 layer_factory.hpp:77] Creating layer res5c_branch2b_relu
I0419 18:12:49.958796 29296 net.cpp:84] Creating Layer res5c_branch2b_relu
I0419 18:12:49.958799 29296 net.cpp:406] res5c_branch2b_relu <- res5c_branch2b
I0419 18:12:49.958804 29296 net.cpp:367] res5c_branch2b_relu -> res5c_branch2b (in-place)
I0419 18:12:49.959161 29296 net.cpp:122] Setting up res5c_branch2b_relu
I0419 18:12:49.959172 29296 net.cpp:129] Top shape: 1 512 7 7 (25088)
I0419 18:12:49.959177 29296 net.cpp:137] Memory required for data: 313985764
I0419 18:12:49.959180 29296 layer_factory.hpp:77] Creating layer res5c_branch2c
I0419 18:12:49.959188 29296 net.cpp:84] Creating Layer res5c_branch2c
I0419 18:12:49.959192 29296 net.cpp:406] res5c_branch2c <- res5c_branch2b
I0419 18:12:49.959199 29296 net.cpp:380] res5c_branch2c -> res5c_branch2c
I0419 18:12:49.963733 29296 net.cpp:122] Setting up res5c_branch2c
I0419 18:12:49.963747 29296 net.cpp:129] Top shape: 1 2048 7 7 (100352)
I0419 18:12:49.963752 29296 net.cpp:137] Memory required for data: 314387172
I0419 18:12:49.963757 29296 layer_factory.hpp:77] Creating layer scale5c_branch2c
I0419 18:12:49.963766 29296 net.cpp:84] Creating Layer scale5c_branch2c
I0419 18:12:49.963770 29296 net.cpp:406] scale5c_branch2c <- res5c_branch2c
I0419 18:12:49.963775 29296 net.cpp:367] scale5c_branch2c -> res5c_branch2c (in-place)
I0419 18:12:49.963842 29296 layer_factory.hpp:77] Creating layer scale5c_branch2c
I0419 18:12:49.963994 29296 net.cpp:122] Setting up scale5c_branch2c
I0419 18:12:49.964001 29296 net.cpp:129] Top shape: 1 2048 7 7 (100352)
I0419 18:12:49.964004 29296 net.cpp:137] Memory required for data: 314788580
I0419 18:12:49.964011 29296 layer_factory.hpp:77] Creating layer res5c
I0419 18:12:49.964016 29296 net.cpp:84] Creating Layer res5c
I0419 18:12:49.964020 29296 net.cpp:406] res5c <- res5b_res5b_relu_0_split_1
I0419 18:12:49.964025 29296 net.cpp:406] res5c <- res5c_branch2c
I0419 18:12:49.964032 29296 net.cpp:380] res5c -> res5c
I0419 18:12:49.964058 29296 net.cpp:122] Setting up res5c
I0419 18:12:49.964067 29296 net.cpp:129] Top shape: 1 2048 7 7 (100352)
I0419 18:12:49.964071 29296 net.cpp:137] Memory required for data: 315189988
I0419 18:12:49.964073 29296 layer_factory.hpp:77] Creating layer res5c_relu
I0419 18:12:49.964079 29296 net.cpp:84] Creating Layer res5c_relu
I0419 18:12:49.964082 29296 net.cpp:406] res5c_relu <- res5c
I0419 18:12:49.964087 29296 net.cpp:367] res5c_relu -> res5c (in-place)
I0419 18:12:49.965332 29296 net.cpp:122] Setting up res5c_relu
I0419 18:12:49.965344 29296 net.cpp:129] Top shape: 1 2048 7 7 (100352)
I0419 18:12:49.965348 29296 net.cpp:137] Memory required for data: 315591396
I0419 18:12:49.965353 29296 layer_factory.hpp:77] Creating layer pool5
I0419 18:12:49.965360 29296 net.cpp:84] Creating Layer pool5
I0419 18:12:49.965364 29296 net.cpp:406] pool5 <- res5c
I0419 18:12:49.965370 29296 net.cpp:380] pool5 -> pool5
I0419 18:12:49.965764 29296 net.cpp:122] Setting up pool5
I0419 18:12:49.965776 29296 net.cpp:129] Top shape: 1 2048 1 1 (2048)
I0419 18:12:49.965780 29296 net.cpp:137] Memory required for data: 315599588
I0419 18:12:49.965785 29296 layer_factory.hpp:77] Creating layer pool5_pool5_0_split
I0419 18:12:49.965790 29296 net.cpp:84] Creating Layer pool5_pool5_0_split
I0419 18:12:49.965795 29296 net.cpp:406] pool5_pool5_0_split <- pool5
I0419 18:12:49.965801 29296 net.cpp:380] pool5_pool5_0_split -> pool5_pool5_0_split_0
I0419 18:12:49.965808 29296 net.cpp:380] pool5_pool5_0_split -> pool5_pool5_0_split_1
I0419 18:12:49.965857 29296 net.cpp:122] Setting up pool5_pool5_0_split
I0419 18:12:49.965867 29296 net.cpp:129] Top shape: 1 2048 1 1 (2048)
I0419 18:12:49.965870 29296 net.cpp:129] Top shape: 1 2048 1 1 (2048)
I0419 18:12:49.965873 29296 net.cpp:137] Memory required for data: 315615972
I0419 18:12:49.965878 29296 layer_factory.hpp:77] Creating layer cls_score
I0419 18:12:49.965885 29296 net.cpp:84] Creating Layer cls_score
I0419 18:12:49.965904 29296 net.cpp:406] cls_score <- pool5_pool5_0_split_0
I0419 18:12:49.965912 29296 net.cpp:380] cls_score -> cls_score
I0419 18:12:49.966397 29296 net.cpp:122] Setting up cls_score
I0419 18:12:49.966408 29296 net.cpp:129] Top shape: 1 21 (21)
I0419 18:12:49.966410 29296 net.cpp:137] Memory required for data: 315616056
I0419 18:12:49.966418 29296 layer_factory.hpp:77] Creating layer bbox_pred
I0419 18:12:49.966424 29296 net.cpp:84] Creating Layer bbox_pred
I0419 18:12:49.966428 29296 net.cpp:406] bbox_pred <- pool5_pool5_0_split_1
I0419 18:12:49.966435 29296 net.cpp:380] bbox_pred -> bbox_pred
I0419 18:12:49.968513 29296 net.cpp:122] Setting up bbox_pred
I0419 18:12:49.968525 29296 net.cpp:129] Top shape: 1 84 (84)
I0419 18:12:49.968528 29296 net.cpp:137] Memory required for data: 315616392
I0419 18:12:49.968534 29296 layer_factory.hpp:77] Creating layer cls_prob
I0419 18:12:49.968541 29296 net.cpp:84] Creating Layer cls_prob
I0419 18:12:49.968545 29296 net.cpp:406] cls_prob <- cls_score
I0419 18:12:49.968550 29296 net.cpp:380] cls_prob -> cls_prob
I0419 18:12:49.969218 29296 net.cpp:122] Setting up cls_prob
I0419 18:12:49.969231 29296 net.cpp:129] Top shape: 1 21 (21)
I0419 18:12:49.969235 29296 net.cpp:137] Memory required for data: 315616476
I0419 18:12:49.969239 29296 net.cpp:200] cls_prob does not need backward computation.
I0419 18:12:49.969244 29296 net.cpp:200] bbox_pred does not need backward computation.
I0419 18:12:49.969247 29296 net.cpp:200] cls_score does not need backward computation.
I0419 18:12:49.969250 29296 net.cpp:200] pool5_pool5_0_split does not need backward computation.
…
